checkpoint_critic.pth (torch, 166610 bytes, 9 tensors)

fc1.weight f4 [256, 24]
000000 d6 f0 39 3e 68 e6 1a bf 25 44 d0 3e 1c db c8 be
       0.18158278 -0.6050782 0.4067699 -0.39229667
000010 f9 5b 56 3d 77 24 20 3d c3 20 ba 3e 8b f9 b8 be
       0.052333806 0.039097276 0.3635312 -0.36127886
000020 f3 da f2 bd d6 c8 15 bf d8 78 76 3c de 4c f2 bc
       -0.118581675 -0.58509576 0.01504346 -0.029577669
000030 61 42 fd 3d cd b8 16 3f 92 f8 34 bc a7 45 9c bd
       0.123661764 0.58875734 -0.011045592 -0.07630473
000040 4c 6b 15 be 2c 33 2b bf db fc b4 3b 3c 61 e2 3e
       -0.14591712 -0.6687496 0.005523307 0.4421481
000050 11 66 3f 3f d7 5e c6 3e 13 c5 4b 3c d8 06 00 3f
       0.74765116 0.38744232 0.012437123 0.5001044
000060 f3 94 af 3e 7d 77 f0 3e 2e 45 e2 bb d0 b5 80 3e
       0.34293327 0.46966162 -0.0069052195 0.25138712
000070 a1 20 23 3e 5c d4 a9 3d 62 3b 15 3d ac 4e 74 3e
       0.15930416 0.082924575 0.036433585 0.23858136
000080 e8 32 7b 3e 01 9e 19 3f 65 fc 6a bd 6e 40 94 3d
       0.24531138 0.6000672 -0.05736961 0.072388515
000090 59 4d 2c 3d 36 a8 e9 bc 84 46 17 3d e6 76 50 3d
       0.042065952 -0.028522592 0.036932483 0.05089464
0000a0 e0 a8 e8 3e 31 1a c3 3e 34 14 d8 3d 41 dd 27 bf
       0.4544134 0.3810592 0.105507284 -0.6557198
0000b0 fe 93 9f 3e ef f0 ac bf 7e 79 eb 3d d1 77 0f bf
       0.31167597 -1.3511027 0.11497782 -0.560422
0000c0 0b 75 62 bf cf da 06 3f 73 d4 77 3d 16 e6 35 3e
       -0.88459843 0.52677625 0.06050534 0.17763552
0000d0 3f dc fe 3e 1e 79 3c 3f 48 94 be 3d c6 c6 3d 3e
       0.4977741 0.7362231 0.09305626 0.18532857
0000e0 76 76 0d bf 68 17 e3 3e ff 38 08 3e aa 61 13 3e
       -0.5525888 0.44353795 0.13302992 0.14392725
0000f0 f6 fd 6c 3e e4 76 54 3e 5f a3 23 3e 45 96 1d 3d
       0.23143753 0.20748478 0.1598029 0.038473386
000100 96 50 37 be c8 bf fc 3e 35 b2 02 3e 69 63 d8 3d
       -0.17901835 0.49365067 0.12763293 0.10565836
000110 09 e3 6b be 4a e2 76 bf 39 fb 26 3d 52 85 10 3d
       -0.23035826 -0.9643904 0.04076693 0.035283394
000120 9d 31 96 3e 7b b4 6e be aa 47 85 bc ef 6f bb 3c
       0.29334727 -0.23311035 -0.016269524 0.022880523
000130 72 d6 4b 3e ea 43 24 3c 1e 5b 75 3c f8 2c bf 3d
       0.19906023 0.010025958 0.014975337 0.09334749
000140 ff a5 44 3e c1 11 a0 be 9b 19 22 3d 71 90 38 3e
       0.19203947 -0.31263545 0.0395752 0.1802385
000150 48 2f ff 3e 75 7b a7 3e 71 c1 f5 3c 15 4d 74 3e
       0.4984076 0.32711378 0.029999467 0.2385753
000160 9c 81 e1 3d c1 c2 8f bd 57 f3 4f 3b cd 32 9b 3f
       0.11011049 -0.07019568 0.0031730735 1.2124878
000170 b2 58 7b 3f 43 f8 8b 3c cf 28 b7 3d f1 49 9e 3f
       0.98182213 0.017086154 0.089433305 1.2366315
000180 b9 e8 23 bf c7 c2 2d 3e d9 3a 29 be 06 60 1a bd
       -0.6402698 0.16968833 -0.16526355 -0.03768923
000190 ca 91 4e 3e 0b 9b 85 bb 7f b6 ae bd 68 2e 05 3d
       0.20172802 -0.0040773205 -0.08530902 0.03251496
0001a0 da 63 0a bf 4c da ae 3e 57 6b cf bd 2d c0 76 3e
       -0.5405861 0.34150922 -0.10127895 0.24096747
0001b0 39 e2 c5 3d a8 08 0d 3c 55 cd 05 be c3 6f 7b 3e
       0.09662289 0.008608021 -0.13066609 0.24554352
0001c0 bb 37 94 bf b0 57 db 3e 97 b8 90 be 63 06 d9 3d
       -1.1579508 0.42840338 -0.2826583 0.10596921
0001d0 99 09 d5 be fd 6e 07 bf 83 ca a1 be 0f 1c f1 3d
       -0.41608885 -0.5290373 -0.31599817 0.1177293
0001e0 6a 41 df be b7 49 5f 3d b0 e7 b6 bd 38 3e d3 bd
       -0.43604594 0.05451366 -0.0893091 -0.10314602
0001f0 5c d8 64 3e b1 c1 a6 3f 61 99 26 bd be 9a 82 bd
       0.2234816 1.302786 -0.040673617 -0.06377171
000200 c5 1f fd be 9d dc 03 3e d1 03 1d be cd 70 f6 3d
       -0.494383 0.12877126 -0.15333487 0.12033234
000210 7f ac f9 3d bb c9 78 3f b7 f9 4e be 23 fc 8c 3d
       0.12191104 0.97182816 -0.20212446 0.06884029
000220 0d a5 66 bc 44 59 83 3d a7 a6 8a 3e 35 16 39 be
       -0.014077437 0.064135104 0.2708027 -0.18074878
000230 e1 f5 24 3c af 3c 6b 3f 45 5d ab 3e 31 b2 6a be
       0.010068388 0.9188947 0.33469597 -0.22919537
000240 94 aa b3 3e 16 14 14 bf 99 f9 02 bd a7 fd a9 3e
       0.35091078 -0.5784315 -0.031976316 0.33201334
000250 51 26 01 3e fa 2e 00 be 84 7d 9e 3c 46 3a a4 3e
       0.12612273 -0.1251792 0.01934696 0.3207571
000260 a5 8d b9 bd e4 7e 2b bf 69 3c c7 be 0f 0f 18 3f
       -0.0906022 -0.66990495 -0.38913277 0.5939798
000270 a3 40 ed 3e 01 52 7d 3e 82 ea ad be 7b 89 fc 3e
       0.46338376 0.24738313 -0.33967978 0.4932364
000280 45 54 22 be 5c ee 16 bf c4 34 b8 3c 06 30 50 bc
       -0.15852459 -0.5895746 0.022486098 -0.012706762
000290 a1 96 8e 3e 7c 05 7d 3f 66 ee 57 bc 2c ab 8c bd
       0.27849296 0.98836493 -0.013179397 -0.06868586
0002a0 46 55 14 be 6a 55 86 bf 8b 15 66 be fd 2f eb ba
       -0.14485654 -1.0494816 -0.22469155 -0.0017943379
0002b0 97 01 b1 be 02 02 30 3f f6 ed 5d be f1 67 77 3d
       -0.34571525 0.68753064 -0.21672806 0.06040186
0002c0 4b dc aa bc 40 09 82 bf c6 b1 96 be 91 6a 19 3e
       -0.020856997 -1.0159073 -0.29432505 0.14982058
0002d0 a4 a1 85 be 25 fd 4e 3f f4 81 9a be 6a 24 e7 3d
       -0.26099885 0.8085502 -0.3017727 0.11286242
0002e0 50 38 ef 3d 60 23 47 bf 2d ad 8b 3d 06 bc a4 3e
       0.11680663 -0.7778835 0.0682014 0.321747
0002f0 0d 19 5e bd 2e 0e 34 3f 47 5f b2 3c 44 65 d2 3e
       -0.05422311 0.70334136 0.021773947 0.41092885
000300 b4 9e 6a 3f 46 29 98 3e 08 3f ee bc ee 04 8a 3e
       0.9164841 0.2971899 -0.02908279 0.26956886
000310 72 7b 1d 3e 03 da 09 bf 8d 07 7a bd ea 16 88 3e
       0.15379122 -0.53848284 -0.061042357 0.26579982
000320 6c 17 7a 3f 30 ac c7 3e 0f bd 24 be 61 58 cb 3d
       0.9769199 0.38998556 -0.16087745 0.09928966
000330 4d 89 9d 3e 8a 91 d6 bd ea c9 8e bd 4a f4 08 3d
       0.30768815 -0.10476978 -0.06972106 0.033436097
000340 2c 41 7c 3f ce 73 4a 3e ab 06 02 be 55 3f d7 be
       0.98536944 0.19770738 -0.12697856 -0.42040506
000350 78 82 4c 3e 3b 28 dc be b5 e5 4b bd e6 71 d6 be
       0.19971645 -0.42999443 -0.049779613 -0.41883773
000360 49 53 17 3f 28 93 00 bf 7d f8 30 bb 3e e2 0a 3e
       0.5911146 -0.5022454 -0.002700358 0.13562867
000370 81 bc 09 be c6 84 ca be 71 02 f1 3c 74 b6 7a 3e
       -0.13450815 -0.39554423 0.02942011 0.24483663
000380 98 8c 74 3f a4 e9 7d be 4c bc dc 3c 2d 82 29 be
       0.9552703 -0.24796158 0.026945256 -0.16553564
000390 d5 ef 7f bd 34 23 45 3e 12 6e f5 3c c1 35 d7 bd
       -0.06248458 0.1925171 0.029959712 -0.105082996
0003a0 70 d1 a5 3e 14 9e fb be 31 b8 b7 bc 5b b0 e3 3e
       0.3238635 -0.49144042 -0.022426696 0.44470486
0003b0 9e 4b 09 3e 9d 2b cd 3f 2a 57 21 3d ee 3d c8 3e
       0.13407752 1.6028935 0.039389767 0.3910975
0003c0 a7 60 25 3f 40 b5 3d 3e ec 1f 67 3b 24 64 4d 3f
       0.64600605 0.18526173 0.003526683 0.8023093
0003d0 c1 1a 0f 3f 01 06 27 3f 3c 06 84 39 18 65 3c 3f
       0.559002 0.65243536 0.00025181647 0.73591757
0003e0 9a 76 ed 3e d4 b6 d6 3e fe 5f 2a bd 26 b6 ab 3e
       0.46379548 0.41936362 -0.04159545 0.33537406
0003f0 9a 1d c1 3e a2 28 35 3f d4 19 ba bc 91 bb 95 3e
       0.37717897 0.70765126 -0.022717394 0.29244664

fc1.bias f4 [256]
000000 f9 5c fe 3d 00 43 3c 3e 38 7b 82 bd 2a ec 0d 3e
       0.12420077 0.18384933 -0.06371158 0.1385962
000010 90 a5 31 be b5 07 d6 3d dd 4b b7 3d 42 28 f7 3d
       -0.17348313 0.10450689 0.08950017 0.120682254
000020 4e e8 06 3e 7d c1 15 3e 51 60 14 3e 70 8f 2e be
       0.13174555 0.14624591 0.14489867 -0.17046905
000030 ca 04 2f 3d a4 06 38 be d6 2a 87 3d 6a aa a9 bd
       0.042729177 -0.17971283 0.06599967 -0.08284457
000040 75 3b c4 bd 10 ca ff ba 47 66 e3 3c bd 76 02 be
       -0.09581653 -0.0019515175 0.02775873 -0.12740608
000050 f2 2d 3f be 10 c8 34 3e f2 31 53 3d 63 d7 49 3e
       -0.1866987 0.17654443 0.051561303 0.1971107
000060 57 dd 67 3d 4d 9d 03 3e 1f b3 38 be b8 51 22 3a
       0.05660757 0.12852974 -0.1803708 0.00061919866
000070 a0 60 45 3e 76 5a 63 bb 15 b3 a8 bd 64 ff 15 3d
       0.19275141 -0.003469137 -0.08237282 0.036620513
000080 06 6f 15 be 92 79 06 be 7b 9a e8 bd c6 c5 33 3d
       -0.14593133 -0.13132313 -0.1135759 0.043889783
000090 a1 8c 2f be 30 87 db 3d 1e 1b cc bd f8 c0 32 be
       -0.1714349 0.10719144 -0.0996611 -0.17456424
0000a0 d0 81 0b be b8 db 64 3c c2 23 d4 3d e6 2f 05 bd
       -0.13623738 0.013968401 0.10358383 -0.032516383
0000b0 27 f8 48 be a1 f0 64 ba ea 99 41 3e 4f 1a e4 bd
       -0.19625913 -0.0008733366 0.1890637 -0.111378305
0000c0 f6 1b f6 3c 7e cc 65 3d 3d ab f7 bd 3f 56 1d be
       0.03004263 0.056103222 -0.12093208 -0.15364932
0000d0 7d 87 c9 3d 41 cc d6 bd fc 5c 86 3c 9c 64 34 3e
       0.098402955 -0.10488177 0.01640176 0.17616504
0000e0 74 10 ad 3d a5 af ea 3d bc 97 19 3e aa 14 c8 bd
       0.08450404 0.11459283 0.14999288 -0.09769566
0000f0 06 fd 82 3d ec 81 22 3e 1d ff 17 be d9 00 72 3d
       0.06395917 0.15869874 -0.14843412 0.05908284
000100 b6 7e 97 bd 2e 49 31 be 25 a0 29 be 47 50 ef 3c
       -0.07397215 -0.17313072 -0.16564997 0.029213084
000110 f5 d3 10 be 17 5a e2 3d cf a2 bc bc 80 c3 3a bd
       -0.14143355 0.110523395 -0.023026852 -0.0455966
000120 fe b2 21 be 74 33 b8 3d c5 29 ef bd dc 4f 16 3e
       -0.15790936 0.08994189 -0.11677889 0.14678901
000130 b2 bc dd bb 2a 9c 16 be 89 54 1f 3e 91 b4 1f 3e
       -0.006766879 -0.1470801 0.15559591 0.15596224
000140 2b cb 35 be 81 5d f1 bd cf e8 b6 bd 0d 19 11 be
       -0.17753284 -0.117854126 -0.089311235 -0.14169712
000150 40 6a ad 3c 35 ce 18 be 4f a6 db 3d 29 0c 2c be
       0.021168828 -0.14922412 0.1072508 -0.16801514
000160 2c 1d 3b be 53 c5 af 3b d7 de 70 bb 4f aa 33 3d
       -0.18272847 0.005364099 -0.0036753917 0.04386359
000170 bf 2e 2c be e4 a0 39 3e 50 41 29 be ce b2 1e 3e
       -0.16814707 0.18127781 -0.16528821 0.15497896
000180 1f 55 3e 3e 7f ba 59 3d d7 f5 3d 3d 34 5e e4 bd
       0.18587159 0.053156372 0.04637703 -0.1115078
000190 79 43 81 3d ca ca 2c 3e 3e 04 33 be ea de 32 3e
       0.063116975 0.16874233 -0.17482087 0.17467847
0001a0 fb 3c c0 bd 22 e1 41 3d 20 e5 cc 3d 8c 1f 23 3c
       -0.09386631 0.047333844 0.100046396 0.009956252
0001b0 93 ea f7 bd a4 12 f8 bd 4e 40 27 3c ab fa e5 bd
       -0.12105288 -0.121129304 0.0102082025 -0.11229452
0001c0 a9 1f 1f be 09 90 44 be b3 e1 4d 3e ac 8e 3e be
       -0.15539421 -0.1919557 0.20105629 -0.18609113
0001d0 24 3d 11 be 54 4b ab 3d 4e e3 06 3e 52 b5 48 3e
       -0.1418348 0.08363977 0.13172647 0.19600418
0001e0 cb 7a a7 3d 8f 42 3a 3e 5f de e9 bd 94 e9 91 3d
       0.08177718 0.18189453 -0.11419367 0.071246296
0001f0 5e f2 f3 3c be 8b 3d be c8 38 39 3e 8c f2 8b 3d
       0.029778656 -0.18510339 0.18088067 0.068333715
000200 c4 95 d0 3d c8 8e e5 3d 81 3d 85 3d be 69 d9 bd
       0.101848155 0.11208874 0.065058716 -0.10615872
000210 7e df fe 3d 5e c8 7a 3c af 84 ce bd f3 f1 ed 3d
       0.124449715 0.01530656 -0.10083901 0.11618414
000220 e6 8c ed bb 0a 06 15 3d e0 21 0a 3e 47 b6 1f 3e
       -0.0072494624 0.036382712 0.13489485 0.15596877
000230 18 70 81 bc f4 f3 d8 3b 5e 16 5e 3c 04 5c c9 3d
       -0.01580052 0.0066208784 0.013555137 0.09832004
000240 1a fd 9d 3d a5 ca 03 3e da 61 7c bd c9 56 c3 bd
       0.07714291 0.12870272 -0.061616756 -0.09538037
000250 90 46 42 bd c1 53 f3 3d aa 75 29 3e 32 e7 b2 bd
       -0.047430575 0.11881209 0.16548792 -0.08735503
000260 2f 4c d6 3d 2c d8 49 3e d0 35 14 3e 60 f0 8e 3c
       0.104637496 0.1971137 0.14473653 0.017448604
000270 5a 13 1d bd 04 82 4c 3e 0e fe 8c 3d c4 6f 9c bd
       -0.038348533 0.19971472 0.068843946 -0.07638505
000280 fe fc 38 3d ae aa e9 bd 92 0e e1 bd c4 40 31 3e
       0.045163147 -0.11409508 -0.10989107 0.17309862
000290 3e 2f df 3d 1b 9d 11 be 0c fa 10 bd e8 a4 aa bc
       0.108976826 -0.14220087 -0.035394713 -0.020830587
0002a0 04 8d cf bd 64 b5 e6 bd 69 1d f8 3d ef 08 08 3e
       -0.101343185 -0.11265066 0.121149845 0.13284658
0002b0 87 ab 93 bd d3 45 49 be 20 c0 1a 3e 90 5a 01 be
       -0.072104506 -0.19655542 0.15112352 -0.12632203
0002c0 32 43 76 bc 24 87 d5 bd 23 7e a5 bd 76 e8 08 3e
       -0.015030669 -0.10426167 -0.08080699 0.13369927
0002d0 e7 1f 2a 3e 3d 1d ca bd c2 56 1c 3e 8d 93 fa bd
       0.16613732 -0.09868858 0.1526747 -0.12235174
0002e0 02 16 2c be f8 6b 5f 3d 45 54 5a bc 94 94 d7 3d
       -0.1680527 0.054546326 -0.0133257555 0.10526386
0002f0 13 5a 16 3e 83 3c 9b bd 93 dd 27 3d cc 8f 94 3d
       0.14682798 -0.07579901 0.040982794 0.072539896
000300 19 7a fe 3b 00 c9 00 bd e1 90 66 3d 42 a7 2f be
       0.00776602 -0.03144169 0.05629051 -0.17153648
000310 81 89 79 bc 37 0c 01 be 76 50 45 be 8d 13 2e 3e
       -0.015230537 -0.12602316 -0.19268975 0.16999646
000320 e1 5f 09 be ae 24 ac bd d2 bf 2f 3e be 46 fe bd
       -0.13415481 -0.084054336 0.17163017 -0.12415837
000330 65 e6 f2 bc aa f5 2d 3e 30 28 b8 3d 91 df dc 3d
       -0.029650876 0.16988245 0.0899204 0.107848294
000340 2a 45 86 3d 6d 83 a7 bc 4b 4e 21 3e 4f 0c 31 3e
       0.06556161 -0.02044841 0.15752523 0.17289852
000350 7e 38 a6 bc ce d6 8b bd c2 9c b2 bd b8 f3 b3 3c
       -0.02029061 -0.0682808 -0.087213054 0.0219668
000360 c5 40 21 be 1b 01 37 be d5 3d 4d be 3d 08 be 3d
       -0.15747364 -0.17871515 -0.20043118 0.09278915
000370 2f a1 1e 3d c8 b7 b5 3d bf 0d 2d bc 30 d9 f8 bd
       0.038727935 0.08872944 -0.010562359 -0.121508
000380 8f a5 cb 3c c9 81 c4 bc 4a d7 79 bd 0c 98 02 3e
       0.024859218 -0.023987668 -0.06099633 0.12753314
000390 01 10 a3 bd 3c b6 c0 3c 45 40 cd bd 7b 43 ba bb
       -0.07962037 0.023524396 -0.10022024 -0.005684314
0003a0 db 70 21 3c e9 cb f8 bd bc b9 bb 3d ce b9 1b bd
       0.009853567 -0.12148268 0.091662854 -0.038018994
0003b0 9e 98 13 be 3b cc 0a 3e 73 9a c2 bd 1e 1d 40 3e
       -0.14413688 0.1355447 -0.09502115 0.18761107
0003c0 59 89 2f bd 75 3f 3b 3e 59 7f 10 be 1e ec 83 bd
       -0.042855594 0.18285926 -0.1411108 -0.0644152
0003d0 e2 24 46 3e d1 b5 f8 bc d1 ce b3 bd 36 78 98 3d
       0.19350007 -0.030360134 -0.087796815 0.074448034
0003e0 f4 92 11 be ad a8 ff 3d 3f 4b 90 bd 93 73 32 3e
       -0.14216214 0.12483344 -0.07045602 0.174269
0003f0 6b 38 11 3e 94 16 32 3e 07 89 17 bd b8 9b 09 bd
       0.14181678 0.17391425 -0.036995914 -0.03359577

bn1.weight f4 [256]
000000 c3 55 23 3f 67 bd 98 3e b0 42 02 3f de 4d 0c 3f
       0.63802737 0.29832003 0.5088301 0.54806316
000010 7c 4c 05 3f dc 93 ec 3e d4 75 1b 3f 93 21 f3 3e
       0.5206983 0.46206558 0.60726666 0.47486553
000020 84 e4 3b 3e 05 b9 03 3f 86 c0 06 3f fb e9 21 3f
       0.1834889 0.5145419 0.5263752 0.6324765
000030 cd 6b f4 3e 52 01 0b 3f 62 1c 8d 3e 74 5d 1d 3f
       0.47738495 0.5429889 0.27560717 0.61470723
000040 87 30 b2 3e f3 3c 51 3f 4f 32 02 3f b9 71 53 3e
       0.34802648 0.81733626 0.50858015 0.2064885
000050 95 0c c5 3e 19 89 e8 3e 91 87 03 3f a1 68 d3 3e
       0.38486162 0.45417097 0.5137873 0.41290763
000060 f6 de 0b 3f c2 91 18 3f b3 41 0a 3f 9b 52 96 3f
       0.54637086 0.5959741 0.540065 1.1743959
000070 0e de 48 3f a9 75 f1 3e f9 19 bd 3e 6d 82 63 3f
       0.7846383 0.4716008 0.36933878 0.8887089
000080 18 86 ac 3e 11 3b 08 3f 32 91 98 3e 80 24 f1 3e
       0.33696055 0.5321513 0.29798275 0.4709816
000090 9e cc dc 3e 1b d2 37 3f 42 17 9f 3f cb a2 1e 3f
       0.4312486 0.7180497 1.2428973 0.6196715
0000a0 10 90 c2 3e 43 f5 96 3f d8 ad ec 3e 1c b7 f8 3e
       0.38000536 1.1793598 0.46226382 0.485772
0000b0 f8 76 1b 3f b0 46 be 3e e6 5d 01 3f ef 4b a1 3e
       0.60728407 0.37163305 0.505339 0.31503245
0000c0 ab eb 65 3e 52 78 ce 3e 3a 9a 38 3f cb 0f 3e 3f
       0.22453181 0.40326172 0.7211033 0.7424285
0000d0 57 12 2b 3f 00 90 79 3f 79 5c 33 3f de d2 0f 3f
       0.6682486 0.9748535 0.7006298 0.5618113
0000e0 84 ab c9 3e 1e 80 ae 3e 4f 43 18 3f 45 7d 12 3f
       0.3938867 0.3408212 0.59477705 0.57222396
0000f0 82 a3 41 3f b0 80 df 3e c8 8b e6 3e 88 05 4b 3f
       0.7564012 0.43652868 0.4502852 0.79305315
000100 ae b7 7b 3f d3 e8 57 3f 9e f1 08 3f d8 d5 67 3f
       0.9832715 0.84339637 0.5349368 0.90560675
000110 ea 9f 14 3f 96 14 9d 3f 00 0b 76 3f c1 e0 1f 3f
       0.5805651 1.2271907 0.96110535 0.6245232
000120 1b 1b c4 3e b3 40 d5 3e fd c0 b6 3e 80 43 10 3f
       0.3830193 0.41650924 0.35694113 0.56352997
000130 94 6e 63 3f 7c ea 89 3f 61 31 09 3f dd d3 dc 3e
       0.88840604 1.0774684 0.5359097 0.4313039
000140 7b f5 2d 3f a2 0f 20 3f 98 af df 3e 72 50 02 3f
       0.679527 0.62523854 0.43688655 0.50904
000150 1e 41 06 3f 4e 9e d8 3e af af 10 3f 79 78 f5 3e
       0.5244311 0.42308277 0.5651807 0.47943476
000160 79 94 2b 3f 51 f5 a6 3e 97 a8 31 3f d4 1f f0 3e
       0.67023426 0.32609037 0.6939787 0.46899283
000170 64 6d df 3e c7 3f 94 3f a0 87 5b 3f 6d b0 16 3e
       0.43638146 1.1581963 0.8575382 0.14715739
000180 96 ab f3 3e 99 90 c2 3e a4 92 a1 3f e3 37 24 3f
       0.47591847 0.38000944 1.2622876 0.64147776
000190 72 88 08 3f e2 0d 0e 3e 61 e6 57 3f 70 76 d4 3e
       0.533332 0.13872483 0.84335905 0.4149661
0001a0 8a a2 22 3f 7b 92 81 3f dd fd 24 3f 33 6a 47 3f
       0.63529265 1.0122827 0.64449865 0.7789642
0001b0 a2 d3 36 3f ba ea 07 3f 08 de 70 3f 2d c4 4e 3f
       0.71416676 0.5309254 0.9408879 0.8076809
0001c0 c5 f5 d5 3e c4 0e 53 3f c9 8f b8 3f e4 a2 28 3f
       0.4178907 0.82444406 1.441888 0.6587355
0001d0 b6 c5 8a 3f 02 93 2a 3f 46 7b 24 3f 56 53 02 3f
       1.0841587 0.66630566 0.642506 0.5090841
0001e0 f7 c3 4c 3f 3a f1 07 3f 0d cc 9d 3e c6 53 c5 3e
       0.7998652 0.5310246 0.3081974 0.38540477
0001f0 aa 19 95 3f 8f 53 1d 3f a8 86 02 3f 34 f7 e8 3e
       1.1648457 0.61455625 0.5098672 0.455011
000200 47 1b 22 3f 10 90 30 3f 4b b9 d6 3e 3c 66 f8 3e
       0.6332287 0.6896982 0.41938242 0.485155
000210 4d b4 03 3f ff 42 b1 3e e6 86 42 3f 3b c9 81 3e
       0.5144699 0.34621426 0.7598709 0.2534884
000220 7c 0c 0f 3f 1f b4 ad 3e 50 a8 d5 3e 3b 0b 84 3f
       0.55878425 0.33926484 0.41729975 1.0315927
000230 a6 a6 8e 3f 82 08 23 3f 12 65 35 3f 1a f1 39 3f
       1.1144607 0.63684857 0.70857346 0.72633517
000240 58 64 e5 3e 89 e3 c6 3e 52 ad 3d 3f cc 00 30 3f
       0.4480312 0.3884547 0.7409259 0.68751216
000250 1d 12 6a 3f 3c 41 22 3f 79 46 22 3f a7 6b 7d 3f
       0.9143389 0.6338079 0.6338878 0.9899239
000260 34 2b 43 3e ea 19 8e 3e cc b6 e2 3e 72 3e 7b 3f
       0.1905945 0.27754146 0.44280088 0.9814216
000270 0c 58 84 3f b6 31 10 3f 19 96 c8 3e d0 15 9b 3e
       1.033937 0.5632585 0.39177015 0.3029008
000280 c8 b3 16 3f 25 f4 8a 3f 41 74 6c 3f d0 35 67 3f
       0.58868074 1.0855757 0.9236489 0.90316486
000290 6b 9b 2f 3f 3d 57 83 3f f1 43 1a 3f 6c e0 86 3e
       0.68596524 1.0260998 0.6025992 0.26343095
0002a0 2d 1f 0d 3f 57 ee 52 3f e8 0b 8e 3f 31 b1 38 3f
       0.55125695 0.8239493 1.1097383 0.7214537
0002b0 f3 9c ec 3e 28 e2 2d 3f b0 71 43 3f a5 5f be 3e
       0.46213493 0.6792321 0.7634535 0.37182346
0002c0 af ce d9 3e 64 dc 60 3f 6b 51 06 3f d1 e0 08 3f
       0.425405 0.8783629 0.52467984 0.5346804
0002d0 d1 12 39 3f a3 21 b7 3f ee c2 0e 3f 52 6b 74 3e
       0.72294337 1.430714 0.5576619 0.23869064
0002e0 ef c4 4c 3f f1 42 fa 3e a1 d2 03 3f 6e de 20 3f
       0.79987997 0.48879197 0.5149327 0.628394
0002f0 c5 b6 df 3e e4 8a 11 3f 72 9c c9 3e 37 39 20 3f
       0.4369413 0.56852555 0.3937717 0.625873
000300 e5 4b c5 3e 3a 92 16 3e 0e 24 7b 3e f4 06 03 3f
       0.38534465 0.14704219 0.24525473 0.51182485
000310 55 64 0e 3f 71 e5 3b 3f 7c 08 98 3e f3 2a ec 3e
       0.55621845 0.73396975 0.29693973 0.46126518
000320 3f 33 bc 3f a3 25 ea 3e 40 ca 0a 3f 46 1f 28 3f
       1.4703139 0.4573184 0.5421486 0.6567272
000330 e4 7c ef 3e 7b de 03 3f 68 f0 6e 3f 27 43 18 3f
       0.4677497 0.51511353 0.9333558 0.59477466
000340 2b 82 f0 3e 4c 6d dc 3e 90 2e af 3e 21 24 fe 3e
       0.4697431 0.43052137 0.34215212 0.4963694
000350 9b e1 89 3f 18 2c a9 3e 8e e0 08 3f 01 94 ff 3e
       1.0771974 0.33041453 0.53467643 0.49917606
000360 ba e8 d4 3e 6b 35 21 3f 7b 18 aa 3f d5 69 04 3f
       0.41583806 0.62972134 1.3288721 0.51723987
000370 56 1e 43 3f 99 5c 9b 3e f4 6b 58 3f 7c 61 14 3f
       0.76218164 0.30344084 0.84539723 0.5796125
000380 37 a7 b1 3f 79 24 e5 3e d1 58 12 3f ce c9 ea 3e
       1.3879155 0.4475439 0.57166773 0.4585709
000390 d5 92 56 3f ae 3c 90 3f 68 8e 97 3f 57 e5 82 3e
       0.838178 1.1268518 1.1840334 0.25565597
0003a0 5b a8 81 3f af 60 1c 3f 1e 98 d6 3e 0a c8 31 3f
       1.0129503 0.6108503 0.4191293 0.6944586
0003b0 c2 e7 0c 3f b5 f9 cf 3e 5e fc 1c 3f a7 33 8c 3f
       0.55041134 0.406202 0.6132258 1.0953263
0003c0 0a 1b fb 3e 86 92 1f 3f 96 3f c6 3e b3 5b 1c 3f
       0.49044067 0.6233295 0.38720387 0.6107742
0003d0 90 d5 fb 3e 0c f6 de 3e 19 10 e9 3e 2f a0 03 3f
       0.49186373 0.43547094 0.45520094 0.51416296
0003e0 8b 19 02 3f 41 6e 11 3f ac cf 17 3f 42 4b dd 3e
       0.50820225 0.5680886 0.5930126 0.4322148
0003f0 04 23 61 3f 64 ce 0f 3f 7e 01 0f 3f 1d 20 91 3e
       0.87944055 0.561743 0.5586165 0.28344813

bn1.bias f4 [256]
000000 a8 0c 1a bf 67 98 df bd 02 17 14 bf f6 13 20 bf
       -0.6017556 -0.1091774 -0.5784761 -0.6253046
000010 ee 85 4d be a4 9b e1 be 48 4b 03 bf ea f9 ac be
       -0.20070621 -0.44064057 -0.51286745 -0.3378442
000020 c4 19 7d 3d 6d 61 88 3d 1d 7f 2b bf 5c d2 93 be
       0.06179215 0.066592075 -0.66990834 -0.2887143
000030 99 3d cf bd 7d 5d 1d bf cd 38 49 3d dc 64 17 bf
       -0.10119171 -0.61470777 0.049126435 -0.59138274
000040 8f e2 ad be 43 f7 6e be 1e 1a 05 bf 99 a6 bd 3d
       -0.33961913 -0.2333651 -0.51992977 0.092602916
000050 7f 60 c5 be 91 90 fe be 2e a9 38 bf 19 31 ef be
       -0.38550183 -0.4971967 -0.7213315 -0.46717146
000060 bb ff 51 be b9 55 06 bf 3d d2 d3 be 94 5c c4 3d
       -0.2050771 -0.5247455 -0.41371337 0.095879704
000070 18 a3 0d bf 80 01 43 be ea 7f d4 be 6f 66 23 bf
       -0.55326986 -0.19043541 -0.4150384 -0.63828176
000080 a0 b9 82 be 6b d0 47 bf 85 f6 14 be 22 bd 08 bf
       -0.25532246 -0.78052396 -0.14547165 -0.53413594
000090 ce 99 56 be ef b6 bc be cf 51 45 be d0 66 20 bf
       -0.2095711 -0.36858317 -0.19269489 -0.6265688
0000a0 a8 37 c0 be 55 55 3f be c3 04 03 be 2c a1 94 be
       -0.37542462 -0.18684895 -0.12794785 -0.29029214
0000b0 07 74 3c bf 87 44 06 bf e4 aa 02 bc 81 88 93 3e
       -0.73614544 -0.52448314 -0.007975314 0.28815082
0000c0 a3 f2 d9 bd ee da e5 be e8 ad b8 be 0f 7f 31 bf
       -0.106419824 -0.44893593 -0.3607018 -0.693345
0000d0 80 bf 29 bf ad ab 41 bf e5 d3 cf be ac 46 03 bf
       -0.6630783 -0.7565258 -0.4059135 -0.5127971
0000e0 d3 f6 97 be 58 73 4f be 7a c5 52 be 55 28 e7 be
       -0.296805 -0.20258844 -0.20583144 -0.45147958
0000f0 17 f3 4d bf 95 2c 68 be 6c e3 b2 be 1f 55 44 bf
       -0.8044905 -0.22673257 -0.34939134 -0.76692384
000100 b4 63 95 be bf e6 2f bf 92 eb 09 bf 68 fe 0b bf
       -0.2917763 -0.68711466 -0.53875077 -0.5468507
000110 e5 1f 4d bf d5 22 2a bf db 8b bc 3b 6f 2a 13 be
       -0.8012679 -0.664594 0.0057539768 -0.14371656
000120 34 ba b8 3d df 8f 2a bf d7 dc 9f be 79 65 31 bf
       0.090198904 -0.6662578 -0.31223175 -0.6929546
000130 09 67 8c 3e da 4f 3e 3d 53 fc 0e bf 75 bd ee be
       0.2742236 0.04646287 -0.55853766 -0.4662892
000140 46 14 27 bf 7d 3d 96 be 60 0e 0e bf b8 38 73 be
       -0.6526531 -0.29343787 -0.55490685 -0.23752105
000150 2c e3 ed be 59 b7 07 bf a4 9a 1e bf cb 62 f7 be
       -0.4646238 -0.5301414 -0.6195471 -0.4831756
000160 16 b9 5e bf b9 af bb be 76 90 1e bf e7 d2 7a be
       -0.8700117 -0.36657503 -0.6193918 -0.24494515
000170 a8 cf 90 be 14 7a f8 be f6 1b 61 bf 73 33 2d bd
       -0.2828343 -0.48530638 -0.8793329 -0.042285394
000180 de a1 f7 be ed b8 05 bf 90 af ba be 33 6f 1e bf
       -0.48365682 -0.522353 -0.3646207 -0.61888427
000190 a2 18 1d bf 3c c2 7a be af 27 d7 b8 cb ce ab be
       -0.6136571 -0.24488157 -0.000102593905 -0.33556208
0001a0 a1 67 05 bf 1e 0d 4b bd 11 7b 20 bf 71 1a 51 bf
       -0.5211125 -0.049573056 -0.62687784 -0.8168097
0001b0 bd a3 30 bd d3 1c 15 bf 51 10 2b bf f2 6d f4 be
       -0.043124903 -0.5824711 -0.6682177 -0.47740132
0001c0 27 a9 1e bf 4e 59 f3 be ea 88 38 bf 27 e2 c7 be
       -0.61976856 -0.47529072 -0.72083914 -0.39039728
0001d0 2b 81 bb be f3 7b a6 be a4 e0 07 bf a7 dd 62 bf
       -0.36621985 -0.3251644 -0.5307715 -0.88619465
0001e0 ad c9 50 bf fe fc e8 be 97 87 84 be bb b0 62 be
       -0.8155773 -0.45505518 -0.25884697 -0.2213773
0001f0 f8 05 c6 be 40 c1 d2 be 3c 33 b7 be 73 5b e0 be
       -0.3867643 -0.41163063 -0.35781276 -0.4381977
000200 7c 45 9c be dc 11 22 bf 9d 05 1e bf 47 a6 a1 be
       -0.30521762 -0.633085 -0.61727315 -0.31572172
000210 88 33 0d bf f3 f3 8d be c3 ea 27 bf d9 a7 4a be
       -0.55156755 -0.2772518 -0.6559259 -0.19790591
000220 e4 8c 31 bf 6b 0e 88 be bc 0c 12 bf 6d 3d aa be
       -0.6935561 -0.265735 -0.5705068 -0.3324999
000230 a1 00 26 be fa 97 ab be 37 c7 89 3c 8c a0 13 bf
       -0.16211177 -0.33514386 0.016818626 -0.5766685
000240 c4 62 d9 be e2 2f 18 bf 83 81 c5 be 71 f2 48 be
       -0.42458165 -0.59448063 -0.38575372 -0.19623734
000250 72 25 2a 3e 6d ec f4 be e7 f9 49 bf 9d a4 d3 be
       0.16615847 -0.4783663 -0.78896946 -0.41336527
000260 99 e9 4d 3c 61 79 a6 bd 13 fd 9a be 31 0a 14 3e
       0.012567901 -0.0812862 -0.30271205 0.14457013
000270 fa 0d e3 be 26 ad 24 bf eb 11 eb bd a2 26 48 3d
       -0.443466 -0.64326704 -0.11478027 0.048864968
000280 f2 fc 20 bf a7 f9 7b bd cd ea ff be 04 3a 45 bf
       -0.62885964 -0.061517384 -0.49983826 -0.7704165
000290 98 b5 2f bf b7 84 69 bd a9 47 2a bf 03 4e 06 be
       -0.68636465 -0.057011332 -0.66515595 -0.13115697
0002a0 43 26 0e bf 64 c9 94 be a2 f3 10 bf 9d fb b8 be
       -0.5552713 -0.290599 -0.56621754 -0.36129466
0002b0 b4 07 f6 be 90 2f 2a bf 5c 97 38 bf ef 30 b9 be
       -0.48052752 -0.66478825 -0.72105956 -0.36170146
0002c0 b4 de 20 bf 9e dc 0d bf f7 f2 b4 be 9d 94 dd be
       -0.6283982 -0.5541476 -0.35341617 -0.43277445
0002d0 63 e4 82 bf 87 e1 ac 3d 48 8c cb be 56 5f e1 3c
       -1.0225948 0.084414534 -0.39755464 0.02751128
0002e0 b8 a0 d2 be f3 25 9e be 66 e2 d8 be 94 72 bb be
       -0.41138244 -0.30888328 -0.42360228 -0.36610854
0002f0 49 7b 07 bf b7 ba 9b be 00 dd fe be ad 14 73 be
       -0.52922493 -0.3041589 -0.49777985 -0.23738356
000300 ef d9 81 be d3 cc 1b be 1e dd 9d be 53 5e 30 bf
       -0.25361583 -0.15214853 -0.30832762 -0.6889393
000310 b3 42 f4 be 23 b6 b6 be f5 fc 1e be b8 ee c0 be
       -0.47707137 -0.35685834 -0.15526183 -0.37682128
000320 95 3a 42 3e 07 21 03 bf 34 fb 07 bf e6 e9 95 be
       0.1896766 -0.5122227 -0.5311768 -0.29280013
000330 2c 84 ad be 8b 8a 0b bf 3b 5b b8 be 00 3b 09 bf
       -0.33889902 -0.54508275 -0.36007103 -0.5360565
000340 e2 d0 4e be ee a3 5a be 20 82 77 be 4d f1 be be
       -0.2019687 -0.21351597 -0.24170732 -0.37293473
000350 b5 57 0c bf 53 d8 6b be e5 70 ce be 23 e2 ce be
       -0.5482133 -0.2303174 -0.40320507 -0.40406904
000360 19 47 b4 be a0 fe f7 be 98 71 1c be ae 43 22 bf
       -0.35210493 -0.4843645 -0.15277708 -0.6338452
000370 2e 5b 14 bf de 0b ee bd 6b e6 fe be 53 09 a9 be
       -0.5795163 -0.11623357 -0.4978517 -0.33014926
000380 6f c2 98 be 33 3a ea be 11 8b 39 bf d0 72 31 bf
       -0.2983584 -0.45747527 -0.72477823 -0.69315815
000390 1b 2f e8 be 53 51 e7 be fd db 9a 3e 1d d7 15 3d
       -0.4534844 -0.45179233 0.30245963 0.0365821
0003a0 84 7d f8 be c0 b5 c2 be 33 16 19 bf 63 6d e3 be
       -0.4853326 -0.3802929 -0.597995 -0.44419393
0003b0 71 5f d0 be 29 0b 01 bf bc 87 b4 be 62 ab 86 be
       -0.40697816 -0.50407654 -0.35259807 -0.2630263
0003c0 b2 72 57 be b4 6f e6 be e7 0c e9 be 1d 8b c6 be
       -0.21039847 -0.45007098 -0.45517656 -0.3877801
0003d0 ed cd d0 be 38 56 0d bf 6a 2e b3 be 93 12 8a be
       -0.4078211 -0.55209684 -0.3499635 -0.26967296
0003e0 e6 86 b8 be 7b 99 bc be 31 1e 0c bf 86 e9 a7 be
       -0.3604042 -0.36835846 -0.5473357 -0.32795352
0003f0 31 8f d8 bd d3 e3 7f bf 30 b0 00 3c 83 c5 35 be
       -0.105741866 -0.9995701 0.007854506 -0.17751126

bn1.running_mean f4 [256]
000000 e9 30 f4 40 a9 96 60 c1 5a ee 46 41 b5 f0 3e c0
       7.6309705 -14.036782 12.433191 -2.9834416
000010 1f ce 6e 41 00 b2 93 41 76 76 66 40 9a 96 11 41
       14.925323 18.461914 3.6009803 9.099268
000020 7c b3 e4 c1 2a ef 0c c1 53 09 ed bf c9 95 f8 40
       -28.587639 -8.80839 -1.851847 7.7682843
000030 49 90 a1 40 e6 5e ac 40 9f 9c 13 40 da f7 8a c0
       5.048863 5.3865843 2.3064344 -4.3427553
000040 f8 de 8f c1 8a 78 6d c0 c4 e6 1a 41 44 04 4f 41
       -17.983871 -3.7104821 9.681339 12.938541
000050 79 65 c7 bf f0 8b 84 c1 c4 91 a4 c1 3a 05 f4 c0
       -1.5577842 -16.568329 -20.571175 -7.625638
000060 e4 72 08 c1 fb e1 00 c1 f0 da 27 c1 ee 96 ba bf
       -8.528049 -8.055171 -10.490952 -1.457731
000070 fb f3 cc 40 c1 80 9b 40 f0 b1 3e c0 dc 1d d0 3f
       6.404783 4.859467 -2.9796104 1.6259112
000080 0c 63 40 41 bd 5e 61 c1 d0 e8 4d 41 38 19 b0 40
       12.024181 -14.085629 12.869339 5.5030785
000090 7c b3 99 41 d0 5f 48 41 a3 c1 d8 3f d8 7d dc 40
       19.212639 12.523392 1.6934093 6.890362
0000a0 bb 36 2d c1 e2 2e 18 bf 10 47 db 41 2b 17 51 41
       -10.825862 -0.5944654 27.409698 13.068156
0000b0 cc a7 05 40 e7 b7 7f 40 1f a4 54 c0 03 8b a2 41
       2.0883665 3.9955995 -3.3225172 20.317877
0000c0 1a bf a3 c0 45 fd 31 41 0f 64 e0 c0 0c d1 98 bf
       -5.117078 11.124333 -7.012214 -1.1938796
0000d0 78 78 03 c1 a3 99 52 c0 bb 72 d6 c0 48 61 0c 41
       -8.216911 -3.2906272 -6.701505 8.77375
0000e0 86 42 b7 41 b5 0d 88 3d 6b e6 8d 3f 8d 4d 12 c0
       22.907482 0.066432394 1.1085943 -2.2859833
0000f0 62 00 52 c1 5f d9 aa 3f 6c 96 47 c1 a3 30 8c 40
       -13.125093 1.3347586 -12.474224 4.380937
000100 b6 34 17 bf 22 0e 5d 3f b9 30 0d c1 33 1f 98 40
       -0.59064806 0.8634969 -8.824395 4.7538085
000110 6c 70 1b 41 96 5a 0d 41 55 77 2d c0 2d 40 d7 be
       9.714947 8.834616 -2.7104084 -0.4204115
000120 c6 f6 8b 41 f6 7b b8 c0 27 63 81 3f 05 bf d0 bf
       17.495495 -5.765132 1.0108384 -1.6308295
000130 c6 9b cb 3e 02 7e dd c0 d2 ae 73 c0 34 9e f6 c0
       0.39767283 -6.921632 -3.8075452 -7.706812
000140 85 64 b7 40 ef 8f 66 c1 ac 33 cb 3f 75 ea ff 3f
       5.7310205 -14.41014 1.5875144 1.9993426
000150 e3 1c dd 40 85 80 a6 c1 68 8d aa c1 24 48 0d c1
       6.909776 -20.812754 -21.319046 -8.830112
000160 64 9c 9b c1 31 04 fe c0 f2 f7 a2 41 62 60 e0 40
       -19.451363 -7.9380116 20.371067 7.0117655
000170 1f 85 46 40 b4 c6 07 3f 47 99 31 c1 14 bf d5 bd
       3.101875 0.5303757 -11.099921 -0.10436836
000180 49 52 af 40 82 9b 3d 40 33 cf 73 3f 03 7b da bf
       5.4787946 2.9626164 0.95238036 -1.706879
000190 5c fc 2d c1 ad b4 16 c1 9d 54 25 41 c1 40 86 c0
       -10.874111 -9.41911 10.333158 -4.1954045
0001a0 31 e0 68 41 e3 2a 3c c0 3d fe 5b 41 7b 5e e6 40
       14.554734 -2.9401176 13.74957 7.1990333
0001b0 a1 6f 6e 41 68 d6 ec 40 ce 74 b9 3f f8 90 98 3e
       14.902253 7.4011726 1.4488771 0.29798102
0001c0 db 38 14 c1 c3 91 38 c0 90 9e 68 c0 30 24 5d 41
       -9.263881 -2.8838966 -3.634678 13.821335
0001d0 d4 ad 0c 40 01 b0 6e 41 f6 7b 65 c0 4f 31 cd c1
       2.1981096 14.91797 -3.585691 -25.649076
0001e0 f2 f6 d5 c0 f1 f8 b6 40 9c 8c 4e c0 cf 9d b4 41
       -6.6863947 5.7178884 -3.227332 22.577055
0001f0 0f 45 3c c0 a0 5c 25 41 79 06 8c 40 e5 16 71 c1
       -2.941715 10.335114 4.37579 -15.0680895
000200 81 44 50 41 dd ee 1f 41 f8 90 b3 40 68 10 8f c0
       13.016725 9.995816 5.6114464 -4.4707527
000210 76 be c5 c0 9c d5 0c 41 12 9f 3d 3e bb d1 b6 c0
       -6.1794996 8.802151 0.18517712 -5.713102
000220 5b 9a b3 3f 15 5f 8e c1 82 e7 81 c0 af c0 b6 40
       1.403148 -17.796427 -4.05951 5.711021
000230 ed 35 76 c0 d2 f0 30 c1 79 1a 05 41 6f b2 de c0
       -3.8470414 -11.058794 8.318963 -6.9592814
000240 a7 31 a5 40 b1 da b7 c0 37 1f 4d 40 ab e8 5e 41
       5.162311 -5.7454457 3.2050302 13.931804
000250 50 25 b9 3f 0f 26 1f 3f b9 ab 2f 41 d8 da 06 c0
       1.4464512 0.6216745 10.979424 -2.1071072
000260 fd bd 7c c1 87 c8 b4 3f d5 1d 0a 40 47 19 38 41
       -15.796384 1.4123696 2.1580708 11.506171
000270 82 d1 02 40 bc 72 f5 c0 d1 30 bd 41 c3 65 e0 40
       2.0440373 -7.6702557 23.648836 7.012422
000280 ba 86 01 41 a4 4f 4d bd 3f 82 2c c0 f6 63 88 c0
       8.095392 -0.05012478 -2.6954496 -4.2622023
000290 a8 93 bb c1 99 ae 09 41 b9 b7 fd 3f 75 a4 06 c1
       -23.447098 8.605126 1.9821693 -8.415151
0002a0 16 67 09 40 f5 47 20 41 6a 89 b9 40 49 7c 2e 40
       2.1469169 10.017568 5.798024 2.7263358
0002b0 a9 02 6e c1 2d 6f ef c0 22 25 9d 40 21 21 72 c1
       -14.875649 -7.4823213 4.910783 -15.133088
0002c0 08 63 82 41 94 1c c1 40 7d 95 dd 40 ad 5b 5f 40
       16.298355 6.0347385 6.924498 3.4899704
0002d0 81 38 88 c1 6c db c7 bf 4a 24 49 41 9e 1a a6 41
       -17.02759 -1.5613837 12.57136 20.762997
0002e0 aa 2f cc bd 87 c6 99 40 89 f3 92 c1 f2 f3 97 41
       -0.09970029 4.8054843 -18.368914 18.994114
0002f0 d5 bf a7 bf 91 09 53 40 2f 18 3f c1 83 6a 93 41
       -1.3105417 3.297459 -11.943404 18.427008
000300 b8 33 f9 40 ce 50 96 bf d1 27 0d c1 e6 91 90 c1
       7.7875633 -1.174341 -8.822221 -18.07124
000310 13 2f e5 40 b9 60 53 c0 42 7f 11 41 53 b3 a0 3f
       7.1619964 -3.3027785 9.093569 1.2554725
000320 dd b0 a0 bf 5e 3e 6a 40 5e 81 af c0 5f 4e cc c0
       -1.2553974 3.6600566 -5.484542 -6.384567
000330 8d 4e ae 40 63 29 0d c1 77 47 5a c0 35 31 cd 3f
       5.4470887 -8.822604 -3.4106119 1.6030642
000340 69 a6 1c c1 0e c3 56 c0 16 52 89 c0 d3 d6 82 41
       -9.7906275 -3.3556552 -4.2912703 16.354895
000350 f5 3a e2 40 72 4d 8b c0 65 ec 85 40 dc 5f 55 c0
       7.069697 -4.353204 4.1851068 -3.3339758
000360 66 e7 21 41 b9 97 24 c1 d9 f4 11 3e e4 a7 6a 40
       10.118994 -10.287042 0.14253558 3.6664972
000370 2b 34 1f c0 2e df f0 40 04 e3 af 40 8b f1 f1 40
       -2.487559 7.5272436 5.496462 7.560735
000380 3c 78 0f 41 e5 db 8d 41 77 52 3e c1 34 d2 fc c1
       8.966854 17.73237 -11.895133 -31.602638
000390 f5 e2 83 41 e8 ec 81 3f 5d 9c 8e 3e 44 02 bc c0
       16.485819 1.0150423 0.2785367 -5.8752766
0003a0 c4 de 27 c0 e5 8e 3e 41 32 b4 83 40 7d a1 da bf
       -2.6229715 11.909886 4.1157465 -1.7080532
0003b0 7f f1 b0 c0 c2 f8 47 be 06 0f 4f 41 65 68 6d 40
       -5.5294795 -0.19528487 12.941168 3.7094967
0003c0 7f a8 93 41 98 6e 09 41 4c e3 49 c1 1b c5 9d c0
       18.457273 8.5895 -12.617992 -4.9303107
0003d0 82 fa 39 41 7a e0 29 c1 80 f1 00 c1 f3 85 9c 41
       11.623659 -10.617304 -8.05896 19.565405
0003e0 5d d7 25 41 e9 11 b5 41 36 84 91 41 a5 fa 9f 40
       10.365079 22.633745 18.189556 4.9993463
0003f0 ae 72 19 40 c8 ef 5b c1 de 84 a8 41 a8 0d b8 c0
       2.3976245 -13.74604 21.064877 -5.751667

bn1.running_var f4 [256]
000000 a2 58 35 43 0f 18 63 42 05 81 71 42 a5 ee 16 43
       181.34622 56.773495 60.375996 150.9322
000010 39 a5 66 43 a4 b6 2d 43 b0 03 4b 43 c5 e9 30 43
       230.6454 173.71344 203.0144 176.91316
000020 cd 5d c0 42 88 d5 8b 42 a2 c1 16 43 c8 d9 37 42
       96.183205 69.91705 150.75638 45.962677
000030 e7 1a c2 42 7a 36 96 43 80 29 3e 43 58 55 16 43
       97.05254 300.4256 190.16211 150.33337
000040 14 64 05 43 07 1b 5c 41 f5 3b f6 42 7c 0e 2c 43
       133.39093 13.756598 123.1171 172.05658
000050 de 21 e5 42 a7 ae 28 43 21 f8 9a 42 cf 2d fd 42
       114.56615 168.68224 77.48463 126.58947
000060 b9 b4 ea 42 0c cb f0 42 81 7b 3f 42 cd 0e 30 44
       117.352974 120.396576 47.87061 704.23126
000070 79 f4 1f 42 d7 ef a2 42 0f 71 f4 42 71 d9 3c 43
       39.988743 81.46844 122.22082 188.84938
000080 fc b0 17 43 51 bf b2 42 cf d9 25 43 08 72 3c 43
       151.69135 89.373665 165.85081 188.44543
000090 48 76 c1 42 60 23 88 42 d8 d1 cc 41 a4 f6 41 43
       96.73102 68.06909 25.602463 193.96344
0000a0 50 5b b2 43 33 e9 a8 41 d2 c4 ce 42 34 61 9a 42
       356.71338 21.113867 103.384415 77.18985
0000b0 39 df 16 43 6a 32 3e 43 99 00 81 42 08 0a 5c 42
       150.87196 190.19693 64.50117 55.009796
0000c0 ed 75 c1 42 60 29 38 43 7f 2f 2b 41 07 d5 b9 42
       96.73032 184.16162 10.699096 92.91607
0000d0 24 47 0b 42 fb 18 6e 42 3c d8 3f 43 da 1f 0a 43
       34.819473 59.524395 191.84467 138.12442
0000e0 b8 a7 ae 42 ee fd 32 43 cd 9d d7 42 e3 78 20 43
       87.327576 178.99191 107.808205 160.47221
0000f0 87 43 07 43 71 11 23 43 c1 bf d8 42 68 46 1a 42
       135.26378 163.06813 108.37452 38.568756
000100 02 4c 81 41 fa a3 cd 43 e8 d8 15 43 54 85 28 42
       16.162113 411.28107 149.84729 42.130203
000110 f3 da 9a 42 fd 03 8c 41 8d de 2c 42 c9 17 5c 42
       77.427635 17.501947 43.217335 55.023228
000120 71 1c e4 41 76 f8 12 43 89 12 af 42 3b 71 23 43
       28.513887 146.97055 87.5362 163.4423
000130 76 7d ed 3f 5b 39 26 44 73 59 6b 43 66 07 b9 42
       1.8553913 664.8962 235.34941 92.51445
000140 c5 2d 59 43 51 c0 d3 42 e4 92 70 43 6a 33 c0 41
       217.17879 105.87562 240.57379 24.025105
000150 6e 6d 5b 43 08 6e 84 42 77 4f 52 42 c3 0b 83 42
       219.42746 66.214905 52.577602 65.52297
000160 4f dd 62 43 ba b6 7e 43 f2 98 13 43 25 31 09 43
       226.86449 254.71378 147.59744 137.19197
000170 29 01 eb 42 b9 63 28 41 ed 75 a8 42 1a 1d 25 43
       117.502266 10.524346 84.23032 165.11368
000180 06 ed 90 41 4a 04 b7 42 1c 12 f3 40 c1 09 1d 43
       18.115734 91.50838 7.5959606 157.0381
000190 54 11 da 42 ac 00 67 43 15 25 c7 41 d4 34 e2 42
       109.033844 231.00262 24.893106 113.10318
0001a0 9e 0a bb 41 55 cd 26 44 df 6b 98 42 8c 61 a4 42
       23.380184 667.2083 76.210686 82.19052
0001b0 c6 d3 91 42 f8 34 0c 43 64 8b 8d 42 14 a7 08 41
       72.91362 140.20691 70.77225 8.540791
0001c0 c1 09 00 43 84 61 d4 41 bf 7d 1b 42 d9 eb 80 43
       128.0381 26.547615 38.8728 257.84256
0001d0 c8 18 62 41 b7 1c 1c 42 bd cc e7 42 9d 97 c1 42
       14.13105 39.02804 115.89988 96.79612
0001e0 4d b7 55 42 d6 9b 34 43 33 59 03 43 17 69 0e 43
       53.429005 180.60873 131.34843 142.4105
0001f0 f3 0b c9 41 cd 9e 0e 42 49 4a d3 42 49 85 a7 42
       25.130835 35.65508 105.64509 83.76032
000200 21 99 a2 41 94 4c 6c 42 fd 97 0e 43 47 8b fa 42
       20.32477 59.074783 142.5937 125.272026
000210 c0 ad 31 43 93 20 e8 43 c5 27 86 43 d2 a0 bc 42
       177.67871 464.2545 268.3107 94.3141
000220 54 3d 15 43 4e 66 9a 42 8d 53 66 43 f5 f5 3a 42
       149.23956 77.199814 230.32637 46.740192
000230 47 aa 8b 43 bd 61 cd 42 46 7f 57 42 b3 e5 de 41
       279.3303 102.690895 53.87429 27.862158
000240 74 5d 00 43 35 09 ed 43 59 db 87 42 52 ce 6e 42
       128.36505 474.07193 67.92841 59.701485
000250 a8 00 0a 41 48 08 4a 42 b2 4e 04 43 18 f5 57 40
       8.62516 50.508087 132.3074 3.3743343
000260 9c fe 25 43 6f 7c 73 43 4c e4 13 43 00 9e 8e 41
       165.99457 243.48607 147.89178 17.827148
000270 fd 0b 89 40 c9 f3 03 42 45 67 e3 42 2c c6 11 43
       4.2827134 32.98807 113.7017 145.77411
000280 7f 99 95 42 f9 2c 6c 44 8a ec 02 43 95 e1 6f 42
       74.7998 944.7027 130.92398 59.970295
000290 1c 5d 07 43 de 12 a8 41 0e 72 d8 42 cd cd 7e 42
       135.36371 21.009212 108.22276 63.700977
0002a0 ce 5c 41 42 df 47 00 42 3e 27 06 42 00 3c 03 42
       48.34063 32.070187 33.538322 32.808594
0002b0 76 a4 06 43 e2 e9 92 42 a8 99 ec 40 6d 98 1a 43
       134.64243 73.4568 7.393757 154.59541
0002c0 a6 ec cc 42 bd 29 6f 42 10 07 58 42 bc 57 2e 43
       102.462204 59.79076 54.006897 174.34271
0002d0 db 77 07 43 1f e6 8d 44 9e fa 33 43 b0 78 89 42
       135.46819 1135.1913 179.97897 68.73572
0002e0 aa 70 d5 40 d0 11 59 42 00 1d ad 42 f7 b7 49 42
       6.670003 54.267395 86.55664 50.429653
0002f0 64 66 78 43 4c 28 dd 41 b3 76 88 42 8c 91 a7 43
       248.39996 27.644676 68.231834 335.1371
000300 ab 79 f8 41 b4 12 25 43 01 3c ca 43 aa 19 49 42
       31.059408 165.07306 404.46878 50.275063
000310 57 1d f9 42 3a 85 90 42 fc 8b e4 42 17 c7 0b 43
       124.557304 72.26021 114.27341 139.7777
000320 de 76 f4 40 66 90 a7 42 40 bf 15 43 5a 51 89 41
       7.63951 83.78203 149.74707 17.164722
000330 ef 0c 04 43 f1 c8 8e 42 f8 01 1b 42 e5 5b d5 42
       132.05052 71.39246 38.751923 106.67948
000340 52 0d 31 43 9f fe c4 42 9c d3 e6 42 ae f7 db 42
       177.05203 98.49731 115.4133 109.98375
000350 4d 80 81 42 fb 74 c4 42 cf 2d 47 43 fc 75 99 43
       64.75059 98.22848 199.17894 306.92175
000360 65 57 2e 43 51 a3 e8 42 3c c0 15 44 04 c2 ce 43
       174.34138 116.31898 599.00366 413.51575
000370 67 f1 e0 42 dd d0 d5 42 62 9e ce 41 40 27 5e 42
       112.47149 106.907936 25.827335 55.53833
000380 5e 21 bf 43 ea 9f 37 43 aa a8 f5 42 27 66 32 43
       382.26068 183.62466 122.82942 178.39903
000390 42 c0 cf 42 51 8a 3a 42 6e 43 64 40 78 23 a2 42
       103.8755 46.635075 3.5666156 81.069275
0003a0 0f 78 89 42 90 f0 2c 42 f9 8a 01 43 37 03 26 43
       68.73449 43.234924 129.54286 166.01256
0003b0 cf 9c d9 42 b2 47 4d 43 13 56 4a 42 7a 5d 0e 41
       108.80627 205.28006 50.584057 8.897821
0003c0 81 f5 7c 42 78 65 38 43 2a c0 03 43 60 28 f3 42
       63.23975 184.39636 131.75064 121.57886
0003d0 53 5e 00 43 97 d0 a9 42 e6 6b 28 43 68 d7 2a 43
       128.36845 84.9074 168.42148 170.84143
0003e0 b2 24 17 43 a2 42 ba 42 49 f0 5f 42 f4 83 de 42
       151.14334 93.13014 55.984653 111.25772
0003f0 9e 51 17 42 22 ac c4 41 3b fb 8f 42 25 b4 f8 42
       37.829704 24.58405 71.990685 124.351845

fc2.weight f4 [128, 258]
000000 68 72 29 be 50 f3 c3 3b 66 a2 f5 bb 69 ac 18 bd
       -0.16547549 0.005979933 -0.007496166 -0.0372738
000010 ea 23 2c bd 7b 48 d7 bd e1 7c 19 bd 26 c0 10 3d
       -0.042026438 -0.105118714 -0.03747261 0.035339497
000020 2e 34 b9 3b 9c d0 85 bd 23 f9 2c be 7e 40 f7 bc
       0.0056519723 -0.0653393 -0.16891913 -0.03018212
000030 0a 7c 13 be c2 61 26 be 72 cd 34 be 2c 20 9f bd
       -0.14402786 -0.16248229 -0.17656496 -0.07769808
000040 bb b2 af bd 9f d6 f9 bd 70 83 2d bd e1 47 de bd
       -0.08579012 -0.12199139 -0.042361677 -0.108535536
000050 f5 cf f1 bc 9c 67 ed bd 4b 8c c7 bd 9f 93 88 bd
       -0.029518107 -0.115920275 -0.09743556 -0.066687815
000060 48 28 bd bd 91 96 6c bd 96 de 53 bd a9 3b d1 bd
       -0.09236199 -0.05776078 -0.051725946 -0.102164574
000070 cf 00 11 3d 86 54 18 bd 3f 51 ae bd 9e 8b 10 be
       0.03540116 -0.037189983 -0.0851159 -0.1411576
000080 df 3c 9d 3c 71 46 28 be de 9f 89 3d fb 4f 3b bd
       0.019194065 -0.16433121 0.06719945 -0.045730572
000090 b1 bf 31 3d a0 5f 93 bb f1 85 5e bb f2 19 03 be
       0.0433957 -0.0044974834 -0.0033954347 -0.12802866
0000a0 0c 81 ed bd 99 ce e6 bd 40 76 92 3c 8e 8e 57 bd
       -0.11596879 -0.11269874 0.017878652 -0.052626185
0000b0 bc 46 e3 bc 40 91 0f be 50 43 c5 bc 1b 20 89 bd
       -0.02774369 -0.14020252 -0.024079949 -0.06695577
0000c0 83 25 fb bc 95 ce cb bd a3 b6 ff 3b 4a 86 51 bd
       -0.030657535 -0.09951512 0.0078037544 -0.05115346
0000d0 f7 51 61 bd 2a 06 7a bd ae 84 dd bd 1e f7 cc bd
       -0.05500981 -0.061041035 -0.10816322 -0.10008071
0000e0 a4 19 2f bd d7 69 9a bd 92 83 e8 bd ad 83 10 3d
       -0.042749062 -0.075397186 -0.1135322 0.035281826
0000f0 e4 eb 6d bd d9 33 88 bd 06 07 8b bc cf 8e 0e bc
       -0.05808629 -0.06650514 -0.016971122 -0.00870104
000100 1f 7d 38 bd e4 47 87 bd 31 40 16 be 9f 1f 17 be
       -0.0450412 -0.06605509 -0.14672925 -0.14758156
000110 dd 6d 5b bd ce 36 88 bd 9a 4c d2 bd 85 7d d1 bc
       -0.05357157 -0.06651078 -0.10268517 -0.025572548
000120 26 30 73 3d 4b da a2 bd 95 8f 49 bd cd ef f4 ba
       0.05937209 -0.07951792 -0.049209196 -0.0018687189
000130 59 01 84 bd 55 ad 61 bd 75 dd 43 be 3f 71 52 be
       -0.064455695 -0.055096943 -0.19127448 -0.20551012
000140 93 6a f1 bc 6b a8 ec bd 46 09 2b bd e7 e6 e0 3c
       -0.029469764 -0.11555561 -0.04175689 0.027453853
000150 f8 a1 36 3c 65 6a 5c 3d 03 b4 9e bc 8e 66 5d bd
       0.011147015 0.053812403 -0.019372946 -0.054052882
000160 bd 58 e9 bd f1 44 ce bd d6 0f 64 bd c5 77 6a bd
       -0.113938786 -0.10071743 -0.055679165 -0.057243127
000170 36 a0 06 3d 18 af 08 bd c6 f1 d8 bd b3 d7 eb bb
       0.032867633 -0.033370107 -0.105929896 -0.007197344
000180 45 8a ad bd 6c 3b 5e bd c3 ba 2d bd a4 73 e8 bd
       -0.084736384 -0.054255888 -0.042414438 -0.11350182
000190 10 5b 90 bc c4 4f e5 bd af c5 a6 bd 6b eb 07 be
       -0.017621547 -0.11196855 -0.08143174 -0.13273399
0001a0 e0 64 b4 bd 3c fb 8d bd 83 4c 5c bd 58 b9 cc bc
       -0.08808303 -0.06932685 -0.053783905 -0.024990723
0001b0 03 86 91 bd 02 fc e0 bb 24 35 bb bd b7 e2 67 3b
       -0.07105639 -0.006865979 -0.09140995 0.0035382935
0001c0 4f 3b a6 bd ab f4 b3 3b fe cf 24 be 66 a7 5e bd
       -0.08116781 0.005491813 -0.16094968 -0.054358862
0001d0 c2 4d 22 bd e7 0a ca bb f4 2b 39 bd 58 d4 88 bc
       -0.039624937 -0.0061658504 -0.045207933 -0.016702816
0001e0 8c b7 28 be d3 4e 23 be 3c 58 06 be 5e 8e 98 bd
       -0.16476268 -0.15948038 -0.13119596 -0.074490294
0001f0 62 00 f0 3b b8 42 ae bd a0 ac c3 bb 1b 6d dd bd
       0.0073242644 -0.08508819 -0.0059715062 -0.10811826
000200 a5 61 9b bd 81 a9 a7 bd e4 08 1d 3c 70 2d 0d bc
       -0.075869836 -0.08186627 0.009584639 -0.00861679
000210 ee 5d c6 bc b8 e1 53 3d 11 5e 2c be da 45 79 bd
       -0.024214711 0.051728934 -0.16832758 -0.06085763
000220 fb d1 6d bc 45 d0 74 bd 60 bb 4c bc c9 4b 3f bd
       -0.014515395 -0.059768934 -0.012495846 -0.046703134
000230 56 6b e4 3c d1 69 10 bc 4d 46 03 be e2 1a a8 bd
       0.027883213 -0.008814291 -0.12819786 -0.082082525
000240 b3 23 02 3d 21 d5 cd bd bc 22 97 bd da 4b 14 3c
       0.031772327 -0.10050417 -0.07379672 0.009051288
000250 e1 36 bf bc 7a 4e ed bd 8c 52 7a bd 2b e9 86 bd
       -0.023341598 -0.11587234 -0.06111388 -0.06587442
000260 97 01 8a bd 6f 17 c0 bd 0a 88 b3 bd 57 f3 44 bc
       -0.067385845 -0.093794696 -0.08766182 -0.012020907
000270 c0 f5 17 bd 2e 37 c2 bd 4b 2e 07 be d6 2f 93 3c
       -0.0370996 -0.09483181 -0.13201253 0.017967146
000280 2f 6e e5 bd 04 d2 40 3d 27 b2 a7 bb 04 49 81 3c
       -0.112026565 0.047075287 -0.005117673 0.015781887
000290 c2 f4 40 bd 16 a4 75 bd 29 6e 9f bd 3e 90 ff 3c
       -0.04710842 -0.059970938 -0.07784683 0.03119671
0002a0 4b 5f e6 3b fb 2b 9d bc d4 73 b8 bd e9 da 19 bd
       0.007030403 -0.01918601 -0.090064675 -0.037562285
0002b0 a8 b0 03 be cb be 57 bd 7d 96 a2 bd 6f b4 7c bc
       -0.12860358 -0.05267219 -0.079388596 -0.015423878
0002c0 06 a2 13 be 37 fb 12 bd 01 34 d1 bd 9c cf 43 be
       -0.14417276 -0.03588411 -0.10214997 -0.19122165
0002d0 be 1a 77 bd 98 39 28 bd 69 51 e2 bb ba a3 d4 bd
       -0.060328238 -0.04107055 -0.0069066775 -0.10382791
0002e0 3b 5f 59 bc 4f b1 a8 bc 42 7e 8b bd 3a 92 9b 3b
       -0.013267334 -0.02059236 -0.06811191 0.004747656
0002f0 66 14 18 be c9 ff 92 bd 82 61 6b 3d a1 ea 6a bc
       -0.14851531 -0.071776934 0.057466038 -0.014338166
000300 99 9d 8e 3b a8 98 7a 3b 6a ca 32 bd 5c df 02 bd
       0.004352283 0.0038237963 -0.04365007 -0.031951293
000310 4c de 12 3d fd 9d d4 bc f3 15 b5 bc ff 19 87 bd
       0.03585653 -0.025954241 -0.022105193 -0.06596755
000320 c0 a2 37 bc 5c 21 6a bd 45 7d 85 bb 31 c7 a0 bd
       -0.011208236 -0.05716072 -0.004073771 -0.07850493
000330 7b e5 9c 3d 82 ed 0d 3d 27 19 3b be c1 87 4e 3c
       0.076609574 0.034650333 -0.18271314 0.012605608
000340 a3 d6 0e be 1a 6f 0e bd 7f 37 31 bd a2 94 d7 bd
       -0.13949065 -0.034773923 -0.043265816 -0.10526396
000350 27 0c b9 bd bb 5f 09 be b9 89 b6 bd c1 e5 32 be
       -0.09035521 -0.13415425 -0.08912987 -0.17470457
000360 cf b9 11 bc 02 da 84 bd 1a 34 3a be d9 c0 8d bd
       -0.008894398 -0.06486894 -0.18183938 -0.069215484
000370 5b 0d d8 bd 42 5d 59 bd ce cd a1 bc b4 f7 5b 3c
       -0.10549422 -0.053067453 -0.019751456 0.013425756
000380 c0 b1 b5 bc 05 22 ff bd 77 74 8b bd a5 74 39 bc
       -0.022179484 -0.124576606 -0.06809323 -0.011319314
000390 40 f2 be bc 56 94 b0 bc d1 b7 a2 bd 82 87 39 bc
       -0.023308873 -0.021555107 -0.079452164 -0.0113238115
0003a0 f9 ee 04 be 19 82 3d bd 37 dd d5 bd 05 76 e6 bd
       -0.12981786 -0.04626665 -0.10442584 -0.11252979
0003b0 00 32 b2 bb e8 78 ec bb f7 5d 5c be a6 e1 0d 3d
       -0.0054380894 -0.0072165616 -0.2152022 0.034639023
0003c0 40 2b a7 3d 91 08 35 be 79 c0 dd 3c 99 8f f4 bd
       0.08162546 -0.17679049 0.027069317 -0.119414516
0003d0 71 82 c2 bd b4 7a b2 bd 2e 54 8b bb bc e9 d5 3d
       -0.09497536 -0.0871481 -0.0042519784 0.10444972
0003e0 3b b7 cb bd 7d 13 68 bd 41 fb 6d be 69 6b c1 bd
       -0.09947058 -0.05665921 -0.23240377 -0.09444315
0003f0 92 81 b2 bd b3 e9 da bd 0a 3e 1e be 50 95 63 bd
       -0.0871612 -0.10689106 -0.15453354 -0.055562317
