checkpoint_actor.pth (torch, 166098 bytes, 10 tensors)

fc1.weight f4 [256, 24]
-0.06696613 0.06498692 0.041286673 -0.052098285 -0.03292242 -0.09653403 0.03251318 -0.0102212
-0.038474478 0.08645775 -0.036285657 -0.048820943 -0.060314033 -0.044316184 -0.0056435727 -0.031936
-0.013191621 0.062159855 0.017571181 -0.09234982 0.006115166 -0.06353268 0.013558896 -0.11085781
-0.024638886 -0.10227057 0.040204097 -0.06438788 -0.0009191798 -0.1539909 -0.03383349 -0.021546947
0.031257607 -0.14363648 0.043607395 0.024532061 0.0662124 -0.0679846 -0.031830814 -0.0019104257
-0.114273906 -0.10866344 -0.06828015 -0.029355371 0.051483665 0.04473055 -0.016545638 -0.030375734
-0.04711754 -0.022337414 -0.015989223 -0.014827816 0.031829543 0.04114343 0.012015568 0.0038890073
-0.01669736 -0.05279081 0.00599429 0.059699565 0.018678626 0.3002309 -0.022336788 -0.014354454
-0.03467936 0.013638055 -0.038019262 -0.009742253 -0.015639443 0.3698818 0.036866903 0.012941648
0.1187544 -0.04336685 0.02789822 0.052298136 0.1149399 0.05890405 -0.030357951 0.05981576
0.042905014 -0.046364844 -0.046562277 0.11137988 -0.0041849483 -0.013780367 -0.03344104 0.052472018
0.055440653 -0.109762505 -0.023528898 0.011348238 0.002611304 -0.02510723 0.03393033 0.022460183
-0.0014817606 -0.003855453 -0.023110243 0.10717686 0.0034837676 -0.11156998 0.028744433 0.103487216
0.04612891 -0.06621539 -0.017925816 -0.03065065 -0.009440274 0.023636594 0.017362317 -0.06988861
0.005761474 -0.011419457 0.006662298 -0.023814823 0.061630163 0.24164303 -0.0073459833 0.031019239
-0.016350621 -0.012005531 -0.038897414 0.045459088 -0.037409388 0.1064715 0.016165778 -0.018441407
-0.028043842 -0.03189886 0.05734802 -0.019289931 -0.04036916 0.14476433 0.08836646 -0.08925238
0.0592243 -0.09059059 0.0063487464 0.026902154 0.04649226 0.14909558 -0.040379047 0.009500281
-0.037838697 -0.12048503 -0.031714514 0.03015323 0.0051292446 0.064508446 0.026240477 0.06618945
-0.007741598 -0.11627863 -0.031482756 0.067561746 -0.006648767 0.07838985 -0.044290107 0.038833585
0.06653626 -0.09653755 -0.026389545 0.12770306 -0.058954824 0.07558048 -0.047883593 0.08304961
0.049223695 -0.08205402 -0.048644923 -0.009430997 -0.059511594 0.007601597 0.046655368 -0.09214167
0.0707313 -0.09684354 -0.012669198 0.03510088 0.0743363 0.065301485 -0.0049760947 -0.031678826
-0.04528671 -0.010364723 0.034535464 -0.031196753 0.14052199 0.16117395 -0.070919625 0.06735017
-0.076087505 0.013178393 0.033949368 -0.011826253 -0.108056314 -0.107972294 -0.03642616 0.0655476
-0.01574272 -0.08149759 -0.03751162 -0.013253024 0.032331683 -0.022436336 0.0329526 0.03885511
0.014597446 -0.070013255 -0.027442316 -0.03550127 0.10740609 0.12938187 0.030899256 0.00443587
-0.022140771 -0.2602392 -0.00718132 -0.04109274 -0.005253044 0.09346221 0.016962022 -0.033520095
0.014936412 -0.24838819 -0.03181893 0.094477415 -0.010383931 0.10239121 0.03838684 -0.012782503
-0.025017567 -0.18196341 0.0018289615 0.026081191 -0.027708702 0.057252735 0.006405228 -0.017109081
0.08458426 -0.0006973527 -0.018606657 -0.056825165 0.038572773 -0.15648913 -0.006846707 -0.10775358
0.021154149 -0.008791443 -0.016220937 -0.012267126 0.10947286 -0.016765673 0.023153951 -0.07126182
00000000: 8a25 89bd dd17 853d 371c 293d 0365 55bd
00000010: a9d9 06bd a2b3 c5bd 8a2c 053d d276 27bc
00000020: 6a97 1dbd c310 b13d 45a0 14bd 78f8 47bd
00000030: d90b 77bd e384 35bd b8ed b8bb 53cf 02bd
00000040: ab21 58bc 559b 7e3d 70f1 8f3c e721 bdbd
00000050: bb61 c83b 6c1d 82bd 2226 5e3c 6b09 e3bd
00000060: 7dd7 c9bc 3c73 d1bd 0dad 243d cbdd 83bd
00000070: 1df5 70ba caaf 1dbe fc94 0abd 3983 b0bc
00000080: fa07 003d 7115 13be ab9d 323d 76f7 c83c
00000090: 5e9a 873d 833b 8bbd 0761 02bd 4067 faba
000000a0: 7008 eabd f08a debd 77d6 8bbd ad7a f0bc
000000b0: 89e0 523d 6237 373d b88a 87bc 88d6 f8bc
000000c0: 52fe 40bd f4fc b6bc d5fb 82bc 5ef0 72bc
000000d0: b25f 023d 0386 283d f2dc 443c b7de 7e3b
000000e0: e7c8 88bc 2d3b 58bd c06b c43b 8887 743d
000000f0: eb03 993c ddb7 993e a4fb b6bc f22e 6bbc
00000100: f20b 0ebd 2672 5f3c 16ba 1bbd f99d 1fbc
00000110: 4a1e 80bc 2661 bd3e c001 173d 3509 543c
00000120: 8235 f33d 70a1 31bd cf8a e43c 9236 563d
00000130: 9c65 eb3d 6045 713d 3db1 f8bc 5f01 753d
00000140: 2bbd 2f3d 10e9 3dbd 16b8 3ebd 221b e43d
00000150: e421 89bb 0cc7 61bc 79f9 08bd e6ec 563d
00000160: bd15 633d 2acb e0bd adbf c0bc f6ed 393c
00000170: 6922 2b3b adad cdbc 88fa 0a3d 6bfe b73c
00000180: a337 c2ba c5ab 7cbb b151 bdbc 8b7f db3d
00000190: ec4f 643b cd7e e4bd 7279 eb3c 1bf1 d33d
000001a0: abf1 3c3d ef9b 87bd 29d9 92bc 1217 fbbc
000001b0: 61ab 1abc 88a1 c13c 6b3b 8e3c c221 8fbd
000001c0: bfca bc3b ad18 3bbc 684f da3b 4e17 c3bc
000001d0: e96f 7c3d 4571 773e 93b6 f0bb 0f1c fe3c
000001e0: bdf1 85bc d9b2 44bc e552 1fbd 4f33 3a3d
000001f0: 963a 19bd bb0d da3d 186e 843c 6f12 97bc
00000200: 33bc e5bc 61a8 02bd c2e5 6a3d eb05 9ebc
00000210: 225a 25bd 1a3d 143e 79f9 b43d f4c9 b6bd
00000220: 2e95 723d 8f87 b9bd 2509 d03b e861 dc3c
00000230: ab6e 3e3d 83ac 183e 8064 25bd 11a7 1b3c
00000240: c0fc 1abd dbc0 f6bd 14e7 01bd e803 f73c
00000250: 3913 a83b 011d 843d 45f6 d63c 568e 873d
00000260: 3bad fdbb 7e23 eebd 10f4 00bd d05d 8a3d
00000270: e6dd d9bb dc8a a03d 8b69 35bd f70f 1f3d
00000280: 2a44 883d 7bb5 c5bd e32e d8bc 97c4 023e
00000290: 9d7a 71bd f0c9 9a3d 9621 44bd ea15 aa3d
000002a0: c99e 493d f00b a8bd e63f 47bd 7884 1abc
000002b0: 6ec2 73bd d116 f93b b319 3f3d c6b4 bcbd
000002c0: 92db 903d e855 c6bd 7892 4fbc f1c5 0f3d
000002d0: a13d 983d c9bc 853d 820e a3bb a8c1 01bd
000002e0: 8f7e 39bd cdd0 29bc 0f75 0d3d 5590 ffbc
000002f0: ffe4 0f3e c90a 253e 4f3e 91bd e3ee 893d
00000300: c4d3 9bbd 30ea 573c 7e0e 0b3d e6c2 41bc
00000310: a14c ddbd 9420 ddbd 9933 15bd d23d 863d
00000320: e0f6 80bc 35e8 a6bd c9a5 19bd 3623 59bc
00000330: 3a6e 043d 68cc b7bc 4ef9 063d 8926 1f3d
00000340: 202a 6f3c 1c63 8fbd b5ce e0bc c869 11bd
00000350: b9f7 db3d ae7c 043e 7020 fd3c c65a 913b
00000360: 9060 b5bc 133e 85be 4751 ebbb dc50 28bd
00000370: ba21 acbb 1d69 bf3d f0f3 8a3c 5e4c 09bd
00000380: dab7 743c 7959 7ebe 9154 02bd 607d c13d
00000390: 5d21 2abc 7cb2 d13d 853b 1d3d b46d 51bc
000003a0: a4f1 ccbc 9e54 3abe c4b9 ef3a 39a8 d53c
000003b0: 5cfd e2bc d881 6a3d f2e2 d13b 5828 8cbc
000003c0: 833a ad3d 8cce 36ba fd6c 98bc 81c1 68bd
000003d0: 7cfe 1d3d b03e 20be 575a e0bb e9ad dcbd
000003e0: 774b ad3c fc09 10bc c5e1 84bc 0efc 48bc
000003f0: 4f33 e03d 2a58 89bc 5bad bd3c b8f1 91bd

fc1.bias f4 [256]
0.12420184 0.18385372 -0.06365614 0.13860367 -0.17349902 0.10451294 0.08949977 0.12065914
0.13143387 0.14622323 0.14487614 -0.17046078 0.042793788 -0.17976162 0.06601898 -0.08283132
-0.095822826 -0.0019719917 0.027767066 -0.12728593 -0.18670583 0.17654334 0.051641766 0.1970868
0.05660663 0.12854034 -0.18036927 0.00062224467 0.19269721 -0.003419377 -0.08236351 0.036625948
-0.14593579 -0.13133216 -0.11357118 0.043911424 -0.17141883 0.107227534 -0.099697985 -0.17457297
-0.13623762 0.013966558 0.10356567 -0.032515742 -0.19626132 -0.000986267 0.1891849 -0.111373454
0.030048996 0.05621566 -0.12100935 -0.15361962 0.098395415 -0.104838565 0.016318278 0.17617252
0.08449328 0.114590235 0.14998175 -0.09769727 0.06394703 0.1587919 -0.14844353 0.059055377
-0.07397551 -0.1731512 -0.16564403 0.029201405 -0.14143902 0.11064697 -0.023043511 -0.04551024
-0.15790816 0.08992823 -0.11677826 0.14676803 -0.006878063 -0.14701797 0.15560251 0.15595062
-0.1775332 -0.11786349 -0.089254566 -0.14171658 0.02112409 -0.14916505 0.10727131 -0.16801931
-0.18272987 0.0053401077 -0.0037056503 0.043869503 -0.16815649 0.1813672 -0.1652809 0.15492703
0.18587147 0.053187963 0.046274163 -0.111514695 0.063123114 0.16874719 -0.17482182 0.17467599
-0.0938464 0.047385734 0.10000406 0.009969025 -0.12107398 -0.121154025 0.010241323 -0.11227335
-0.1553953 -0.19214402 0.20101279 -0.18608189 -0.14178385 0.08362447 0.13171865 0.19601071
0.08177369 0.18189095 -0.114178956 0.07122853 0.029781945 -0.185088 0.18086591 0.06836648
0.101766974 0.112072684 0.06504596 -0.10615215 0.1244517 0.015302092 -0.1009505 0.11623393
-0.0072579114 0.036385946 0.13491508 0.15598114 -0.015842997 0.0066187517 0.013592561 0.098312795
0.077146366 0.12867391 -0.061625764 -0.095380664 -0.04746234 0.11879358 0.16551039 -0.087064944
0.104653575 0.1970847 0.1447295 0.017470889 -0.03819589 0.19969243 0.0688084 -0.0763885
0.045185093 -0.1140907 -0.109885015 0.17314945 0.10900662 -0.14228828 -0.03540754 -0.020876613
-0.10133049 -0.11256473 0.121143706 0.13284716 -0.07203298 -0.19656478 0.15112488 -0.12635037
-0.015060683 -0.10424095 -0.08076785 0.13370366 0.16612232 -0.09868495 0.1527089 -0.12236731
-0.16814788 0.054555703 -0.013345401 0.105303936 0.14681774 -0.07577297 0.04107154 0.07254542
0.007726025 -0.03144277 0.0562679 -0.17157626 -0.015220508 -0.12601496 -0.1926784 0.17000183
-0.13416073 -0.084046505 0.17164731 -0.12417414 -0.02965171 0.16989446 0.0899606 0.10784166
0.0655626 -0.02044082 0.15753284 0.17291954 -0.020293467 -0.06828633 -0.08719372 0.021937428
-0.15748216 -0.17873879 -0.2004159 0.09278948 0.038730826 0.088745095 -0.010526144 -0.1215051
0.024899881 -0.023996634 -0.060954493 0.12754488 -0.07967491 0.023540763 -0.10018619 -0.005664267
0.009866372 -0.12150952 0.0916768 -0.03801964 -0.14413023 0.13554373 -0.09507733 0.18770584
-0.042879745 0.18283123 -0.14122462 -0.064405166 0.19351175 -0.030399464 -0.08783288 0.07440604
-0.14217095 0.12478182 -0.07050898 0.17426582 0.14180125 0.17385803 -0.036947295 -0.033596907
00000000: 895d fe3d 2644 3c3e 265e 82bd 1fee 0d3e
00000010: baa9 31be e10a d63d a84b b73d 241c f73d
00000020: 9a96 063e 8bbb 153e 695a 143e 458d 2ebe
00000030: 8a48 2f3d 6e13 38be f634 873d 78a3 a9bd
00000040: c23e c4bd 883c 01bb c277 e33c 3e57 02be
00000050: d02f 3fbe c7c7 343e 5186 533d 1fd1 493e
00000060: 5bdc 673d 14a0 033e b9b2 38be 221e 233a
00000070: 6b52 453e a017 60bb 33ae a8bd 1705 163d
00000080: 3170 15be f07b 06be 0298 e8bd 77dc 333d
00000090: 6b88 2fbe 1c9a db3d 752e ccbd 42c3 32be
000000a0: e081 0bbe fdd3 643c 3d1a d43d 3a2f 05bd
000000b0: baf8 48be a145 81ba b0b9 413e c417 e4bd
000000c0: 5029 f63c 6442 663d c0d3 f7bd 764e 1dbe
000000d0: 8983 c93d 9ab5 d6bd e9ad 853c 9266 343e
000000e0: d00a ad3d 49ae ea3d d194 193e 8215 c8bd
000000f0: a9f6 823d 589a 223e 9501 18be 0de4 713d
00000100: 7980 97bd 8c4e 31be 979e 29be c937 ef3c
00000110: 64d5 10be e19a e23d bfc5 bcbc f268 3abd
00000120: adb2 21be 4b2c b83d 7129 efbd 5c4a 163e
00000130: 6061 e1bb e18b 16be 4456 1f3e 85b1 1f3e
00000140: 43cb 35be 6a62 f1bd 19cb b6bd 271e 11be
00000150: 6d0c ad3c b9be 18be 10b1 db3d 410d 2cbe
00000160: 8a1d 3bbe 12fc ae3b 7fda 72bb 82b0 333d
00000170: 3731 2cbe 53b8 393e 653f 29be 31a5 1e3e
00000180: 1755 3e3e 9fdb 593d fa89 3d3d d161 e4bd
00000190: b146 813d 10cc 2c3e 7e04 33be 43de 323e
000001a0: 8b32 c0bd 8b17 423d eece cc3d 1f55 233c
000001b0: a3f5 f7bd 9a1f f8bd 39cb 273c 92ef e5bd
000001c0: f21f 1fbe 67c1 44be 4cd6 4d3e 408c 3ebe
000001d0: c92f 11be 4e43 ab3d 41e1 063e 08b7 483e
000001e0: f778 a73d 9f41 3a3e a8d6 e9bd 43e0 913d
000001f0: 44f9 f33c b587 3dbe ea34 393e ba03 8c3d
00000200: 346b d03d 5d86 e53d d136 853d 4c66 d9bd
00000210: 88e0 fe3d a0b5 7a3c 23bf cebd 0e0c ee3d
00000220: c6d3 edbb 6e09 153d 2e27 0a3e 85b9 1f3e
00000230: 2cc9 81bc 1de2 d83b 55b3 5e3c 3858 c93d
00000240: eafe 9d3d 18c3 033e 4c6b 7cbd f056 c3bd
00000250: df67 42bd 0c4a f33d 8e7b 293e 1b4f b2bd
00000260: 9d54 d63d 92d0 493e f833 143e 1c1f 8f3c
00000270: 4b73 1cbd 2c7c 4c3e 6beb 8c3d 9371 9cbd
00000280: 0114 393d 63a8 e9bd 650b e1bd 174e 313e
00000290: dd3e df3d 05b4 11be 7f07 11bd 6e05 abbc
000002a0: 5c86 cfbd 5688 e6bd 311a f83d 1609 083e
000002b0: 0786 93bd 4748 49be 7bc0 1a3e fe61 01be
000002c0: 15c1 76bc 477c d5bd 9d69 a5bd 9de9 083e
000002d0: f81b 2a3e 561b cabd b95f 1c3e b69b fabd
000002e0: f52e 2cbe cd75 5f3d aba6 5abc 97a9 d73d
000002f0: 6457 163e dc2e 9bbd a23a 283d b192 943d
00000300: 982a fd3b 22ca 00bd 2b79 663d b0b1 2fbe
00000310: 705f 79bc 110a 01be 7d4d 45be f614 2e3e
00000320: 6e61 09be 9320 acbd 50c4 2f3e 034f febd
00000330: 25e8 f2bc d0f8 2d3e 433d b83d 17dc dc3d
00000340: af45 863d 8273 a7bc 4a50 213e d211 313e
00000350: 7c3e a6bc b4d9 8bbd 9f92 b2bd 1fb6 b33c
00000360: 0143 21be 4d07 37be d339 4dbe 6908 be3d
00000370: 37a4 1e3d fdbf b53d d975 2cbc aad7 f8bd
00000380: d6fa cb3c 9794 c4bc 6bab 79bd 209b 023e
00000390: 992c a3bd 8fd8 c03c 6b2e cdbd 519b b9bb
000003a0: 90a6 213c fcd9 f8bd 0cc1 bb3d 7bba 1bbd
000003b0: e096 13be facb 0a3e e7b7 c2bd f635 403e
000003c0: aca2 2fbd 1c38 3b3e 309d 10be dbe6 83bd
000003d0: f227 463e 4c08 f9bc bae1 b3bd 3262 983d
000003e0: 4395 11be 9c8d ff3d 0367 90bd bd72 323e
000003f0: 5934 113e d707 323e 0c56 17bd e99c 09bd

bn1.weight f4 [256]
1.045831 1.1196696 1.1065767 1.0726928 1.148248 1.010192 1.0390942 1.1413344
1.212787 1.3127091 1.1144034 1.0592344 1.1021808 1.2021933 1.1016959 1.134216
1.1515756 1.059789 1.1018376 1.1936532 1.0323006 1.0317482 1.6939524 1.1146716
1.099963 1.0873783 0.99022686 1.087341 1.1312157 1.0920053 1.100577 1.0214069
1.0508 1.0851175 1.0357947 1.1601412 1.1199561 1.024055 1.2500465 0.98968273
1.1799961 1.137046 1.1893924 1.0304142 1.0008034 1.064453 1.1540788 1.1126239
1.0625515 1.1953363 1.1972399 1.0681754 0.9916005 1.0426952 1.0770031 1.2615418
1.0851918 1.0179323 1.0996393 1.0559988 1.0645782 1.11458 1.1308893 1.0691365
1.3045934 1.1112792 1.0783671 1.0967586 1.0197238 1.2327752 1.0439276 1.1126363
1.0723747 1.1198373 1.0754212 1.3304993 1.0844377 1.274727 1.178662 1.009061
1.003306 1.387291 1.6570803 1.1183418 1.0835122 1.0901936 1.0865979 1.139687
1.0567816 1.292101 1.0413421 1.0885471 1.0359299 0.9995881 1.0603086 1.1043278
1.1102263 1.4440254 0.9944397 1.0161282 1.0430616 1.141372 1.1008135 1.0224018
1.0476999 1.3009595 1.0727453 1.015374 1.1553471 1.0454752 1.5040408 1.0849704
1.1193612 1.1370592 1.1532658 1.0891944 1.1331954 1.0762179 1.0587934 1.1585228
1.0942278 1.1210209 1.0268494 1.36262 1.038112 1.1582638 1.0377464 1.1787815
1.1291682 1.0718284 1.066307 1.1517355 1.0527068 1.6160469 1.1413388 1.1389861
1.1087067 1.1138941 1.1255283 1.0290732 1.3548601 1.0559576 1.0431827 1.1026678
1.1046537 1.1701617 1.191567 0.9900352 1.0519819 1.1019977 1.0574453 1.1877538
1.1577649 1.227805 1.013031 1.0830677 1.1195378 1.0674853 1.1437241 1.2720885
1.0642536 1.0964035 0.98115164 1.065003 1.2410539 1.211311 1.1569065 1.0264046
1.0502416 1.2073243 1.1648309 1.0927744 1.1011292 1.240184 1.0480844 1.0217631
1.3149793 1.059025 1.107395 1.1181104 1.0230547 1.3828893 1.5829493 1.1842718
1.0815567 1.0319828 1.0493605 1.0160514 1.0931097 1.0431073 1.3685958 1.2029431
1.0778674 1.0839248 1.0958983 1.0590266 1.0685108 1.218986 1.0654132 1.1060203
1.0654947 1.1315513 1.0845815 1.0999342 1.0863469 1.063446 1.0520693 1.1540071
1.0299487 1.1202276 1.2258118 1.1186664 1.0889785 0.97511387 1.0609119 1.0642719
1.0338037 1.0910563 1.0998467 0.9612888 1.0494895 1.0289879 1.0430088 1.0906171
1.1238385 1.2121183 1.054372 1.2510972 1.1035452 1.213467 1.0828818 1.0047475
1.0425361 1.071719 1.0830846 1.0510708 1.129532 1.0657594 1.0853487 1.0521698
1.0840042 1.1055716 1.1371752 1.0883071 1.1072844 1.1317524 1.4651579 1.1085798
1.127106 1.0905511 1.0786006 1.0771087 1.0184635 1.21038 1.0843846 1.0685186
00000000: cadd 853f 5551 8f3f 4ea4 8d3f ff4d 893f
00000010: caf9 923f f94d 813f 0a01 853f 3f17 923f
00000020: 9b3c 9b3f da06 a83f c5a4 8e3f fe94 873f
00000030: 4314 8d3f 78e1 993f 5f04 8d3f fd2d 913f
00000040: d466 933f 2aa7 873f 0409 8d3f a1c9 983f
00000050: 6d22 843f 5310 843f 6fd3 d83f 8fad 8e3f
00000060: 96cb 8c3f 362f 8b3f 827f 7d3f fd2d 8b3f
00000070: adcb 903f d4c6 8b3f b5df 8c3f 76bd 823f
00000080: 9d80 863f 21e5 8a3f ec94 843f 827f 943f
00000090: b95a 8f3f 3c14 833f 8601 a03f d95b 7d3f
000000a0: 1d0a 973f b98a 913f 033e 983f 9de4 833f
000000b0: 531a 803f ff3f 883f dbb8 933f 766a 8e3f
000000c0: b001 883f c800 993f 283f 993f f9b9 883f
000000d0: 88d9 7d3f 0977 853f 3ddb 893f 347a a13f
000000e0: 91e7 8a3f 9b4b 823f fbc0 8c3f f82a 873f
000000f0: 1944 883f 8faa 8e3f fbc0 903f 77d9 883f
00000100: ebfc a63f 663e 8e3f ef07 8a3f 9662 8c3f
00000110: 4f86 823f 94cb 9d3f 6b9f 853f de6a 8e3f
00000120: 9343 893f d456 8f3f 67a7 893f cd4d aa3f
00000130: dbce 8a3f 412a a33f 65de 963f e928 813f
00000140: 556c 803f c092 b13f 351b d43f d325 8f3f
00000150: 87b0 8a3f 778b 8b3f a415 8b3f 43e1 913f
00000160: 9f44 873f 9163 a53f b34a 853f 8355 8b3f
00000170: 5a99 843f 01e5 7f3f 31b8 873f 9d5a 8d3f
00000180: e51b 8e3f d3d5 b83f 9a93 7e3f 7d10 823f
00000190: 0b83 853f 7a18 923f 75e7 8c3f 10de 823f
000001a0: 081b 863f d785 a63f b84f 893f c6f7 813f
000001b0: 6ae2 933f 22d2 853f 6984 c03f 4fe0 8a3f
000001c0: 3a47 8f3f 288b 913f 379e 933f b96a 8b3f
000001d0: 8c0c 913f 82c1 893f 8b86 873f 7a4a 943f
000001e0: a80f 8c3f 9d7d 8f3f cd6f 833f 556a ae3f
000001f0: dbe0 843f fd41 943f e0d4 843f 50e2 963f
00000200: 9588 903f ac31 893f bf7c 883f 126c 933f
00000210: 19bf 863f a0da ce3f 6417 923f 4cca 913f
00000220: 1aea 8d3f 1594 8e3f 5011 903f acb8 833f
00000230: 0e6c ad3f 9e29 873f 0387 853f 3824 8d3f
00000240: 4b65 8d3f dcc7 953f 4485 983f f272 7d3f
00000250: 58a7 863f 430e 8d3f 5e5a 873f 5108 983f
00000260: a431 943f b728 9d3f 00ab 813f f6a1 8a3f
00000270: 044d 8f3f 5ca3 883f 8d65 923f ccd3 a23f
00000280: 7639 883f f356 8c3f c12c 7b3f 0552 883f
00000290: dbda 9e3f 3d0c 9b3f 8315 943f 3a61 833f
000002a0: 516e 863f 9a89 9a3f 2e19 953f 08e0 8b3f
000002b0: cdf1 8c3f 59be 9e3f a127 863f 22c9 823f
000002c0: 3e51 a83f 228e 873f 1fbf 8d3f 3e1e 8f3f
000002d0: 75f3 823f 8402 b13f 159e ca3f 3896 973f
000002e0: 7370 8a3f 0318 843f 7251 863f f90d 823f
000002f0: 05eb 8b3f 8a84 853f 262e af3f 0afa 993f
00000300: 8ff7 893f 0cbe 8a3f 6546 8c3f 2f8e 873f
00000310: f6c4 883f bc07 9c3f 765f 883f 1392 8d3f
00000320: 2162 883f acd6 903f 91d3 8a3f a5ca 8c3f
00000330: 6a0d 8b3f 001f 883f 35aa 863f 81b6 933f
00000340: 5cd5 833f 9e63 8f3f 67e7 9c3f 7630 8f3f
00000350: a663 8b3f 10a1 793f f6cb 873f 103a 883f
00000360: ae53 843f bca7 8b3f c7c7 8c3f 0617 763f
00000370: ac55 863f e0b5 833f 5081 853f 5799 8b3f
00000380: f1d9 8f3f b126 9b3f a9f5 863f f423 a03f
00000390: f840 8d3f e352 9b3f df9b 8a3f 919b 803f
000003a0: d371 853f 172e 893f 84a2 8a3f 7d89 863f
000003b0: 8194 903f ce6a 883f b5ec 8a3f 80ad 863f
000003c0: a6c0 8a3f 5f83 8d3f f58e 913f a64d 8b3f
000003d0: 7fbb 8d3f 43dd 903f 4b8a bb3f f1e5 8d3f
000003e0: 0245 903f 2e97 8b3f 960f 8a3f b3de 893f
000003f0: 035d 823f bbed 9a3f 1dcd 8a3f 38c5 883f

bn1.bias f4 [256]
0.13353233 0.066520214 -0.13596328 -0.111755535 -0.098242395 0.07007527 -0.0050391704 -0.08835879
0.006133722 0.2777957 -0.1284271 0.025152836 -0.06916259 -0.10220957 0.059827793 -0.13913023
-0.029656284 -0.10334501 0.1668867 -0.11799522 -0.103319384 -0.023652751 -0.07203302 -0.11350574
-0.06908793 -0.023376396 -0.103971526 -0.08841489 -0.0603535 -0.019321611 -0.04255408 -0.029696627
-0.28340042 -0.022957293 -0.09831776 0.033619042 -0.017379342 -0.007047369 -0.16234544 -0.13461354
-0.050781842 0.027871046 -0.0019008191 -0.11276225 0.02117017 -0.001398948 -0.021364927 0.03530671
0.051709328 -0.027567241 -0.17339343 -0.041603476 -0.052308045 -0.10555824 -0.010825206 -0.17737876
-0.08521862 0.0002705543 -0.030985752 -0.1116049 -0.10386561 -0.11149638 -0.0910217 0.0060160607
-0.068961464 0.031922273 -0.19146776 -0.15342836 -0.029811086 -0.17233725 -0.021674484 -0.06220117
0.005929988 -0.0973894 -0.09402748 0.043547742 -0.16118108 -0.032161824 -0.08025363 0.038883563
-0.0068214424 -0.22337246 0.026047757 -0.1636242 -0.020107592 -0.07936421 0.08178273 -0.27029496
0.01941328 0.063851364 -0.09984126 0.032244295 -0.14084516 0.07567721 0.03867442 0.044803094
0.16424401 -0.23751543 -0.018557636 -0.10614797 -0.033540517 -0.08680371 -0.02242174 -0.13659643
-0.032175917 -0.11885485 -0.109422155 0.0041415333 -0.025050923 -0.017222574 -0.11302446 0.019373829
-0.031184206 0.17074916 0.019320073 -0.16866088 -0.045021962 0.005337739 0.04552545 -0.072921515
-0.047188904 0.026295554 0.10280747 -0.028650763 0.07249639 0.0820206 -0.10206937 0.024957964
-0.043947935 0.05276217 0.053561263 0.09619064 -0.15380844 -0.086079836 -0.0626525 -0.0031192696
0.060181435 0.087169155 -0.055186857 -0.1241514 -0.1333148 -0.10705523 -0.010388174 -0.02408739
0.098835036 -0.08076905 -0.061886773 -0.043401834 -0.12629008 -0.12875412 0.03553974 0.11537173
-0.09721936 -0.0011462764 -0.18182278 -0.026344344 -0.031961918 0.08409309 0.054356985 0.046137966
-0.07699065 -0.009133517 -0.04358631 -0.15836856 -0.00040727406 -0.050719023 -0.010961173 -0.06694412
-0.029070158 0.026100762 0.0008489065 0.018220516 -0.07913849 0.12914759 0.06816797 -0.1572054
0.11392789 0.123523355 0.137569 -0.09354666 -0.055331066 -0.28340232 -0.19362095 0.20681614
-0.0010719739 -0.062213954 -0.0029114902 -0.2506509 -0.068503976 -0.25361195 -0.20275143 -0.045707762
-0.005882044 -0.001035809 -0.03403608 0.06541885 0.037220165 -0.07730457 -0.1175768 0.15522334
-0.06466127 -0.098569155 -0.03277022 0.014879653 -0.058114357 -0.1282838 -0.048976824 0.02782229
0.009812137 -0.09579289 -0.020263296 -0.07142453 -0.08128963 -0.03508053 -0.08044262 -0.015264613
-0.10978401 -0.05077744 0.08353154 -0.13672732 -0.030558078 -0.050277412 0.064751476 -0.06495671
-0.10402109 -0.07109874 -0.062933475 0.03535814 -0.007176865 0.03657096 -0.12412182 0.01980034
0.11278714 0.028909106 -0.10696302 -0.19349827 0.051093303 -0.07234669 0.048995268 -0.07814366
0.05887035 0.027975952 0.0029129637 -0.03525925 -0.014244802 -0.06609627 -0.12764193 -0.11742767
-0.024349941 -0.045215238 -0.13850752 -0.14931127 -0.113572724 -0.039656498 -0.16411099 -0.048262045
00000000: b3bc 083e c03b 883d f539 0bbe 16e0 e4bd
00000010: 4f33 c9bd a083 8f3d a01f a5bb 74f5 b4bd
00000020: 64fd c83b 3d3b 8e3e 6582 03be 520d ce3c
00000030: 1ea5 8dbd 4053 d1bd fd0d 753d 2878 0ebe
00000040: bcf1 f2bc 8ca6 d3bd 59e4 2a3e 7aa7 f1bd
00000050: 1d99 d3bd 6ac3 c1bc 0c86 93bd b375 e8bd
00000060: f97d 8dbd db7f bfbc 06ef d4bd de12 b5bd
00000070: 3b35 77bd 5b48 9ebc 304d 2ebd 5746 f3bc
00000080: dc19 91be ef10 bcbc d25a c9bd 1fb4 093d
00000090: 1f5f 8ebc 9eed e6bb e23d 26be 22d8 09be
000000a0: 9f00 50bd d251 e43c e824 f9ba e5ef e6bd
000000b0: 106d ad3c e85c b7ba 8005 afbc c59d 103d
000000c0: 29cd 533d b2d4 e1bc 0c8e 31be 6868 2abd
000000d0: f640 56bd eb2e d8bd 345c 31bc c7a2 35be
000000e0: 1a87 aebd 2fd9 8d39 d5d5 fdbc 1c91 e4bd
000000f0: 7eb7 d4bd 3758 e4bd 9669 babd 6022 c53b
00000100: ab3b 8dbd eec0 023d 2010 44be 531c 1dbe
00000110: 6136 f4bc 2d79 30be b08e b1bc a7c6 7ebd
00000120: 5850 c23b 1874 c7bd 7b91 c0bd 1e5f 323d
00000130: a70c 25be 1ebc 03bd 045c a4bd 5f44 1f3d
00000140: 6886 dfbb c0bb 64be 1b62 d53c 1a8d 27be
00000150: adb8 a4bc b489 a2bd b47d a73d 1a64 8abe
00000160: 9908 9f3c 81c4 823d 9379 ccbd 9812 043d
00000170: b739 10be a7fc 9a3d 1269 1e3d 7383 373d
00000180: 952f 283e 3f37 73be 2f06 98bc 1b64 d9bd
00000190: c861 09bd 25c6 b1bd ccad b7bc efdf 0bbe
000001a0: e5ca 03bd 2c6a f3bd b918 e0bd b3b5 873b
000001b0: 9837 cdbc 5b16 8dbc 5e79 e7bd ddb5 9e3c
000001c0: 0576 ffbc ded8 2e3e 2145 9e3c 70b5 2cbe
000001d0: f368 38bd 33e8 ae3b e578 3a3d e057 95bd
000001e0: 2749 41bd c669 d73c b98c d23d 01b5 eabc
000001f0: fd78 943d 6bfa a73d bf09 d1bd a574 cc3c
00000200: c002 34bd 251d 583d 0e63 5b3d 99ff c43d
00000210: f67f 1dbe a04a b0bd f44f 80bd a96c 4cbb
00000220: cf80 763d be85 b23d 9d0b 62bd 1743 febd
00000230: ad83 08be c63f dbbd 2933 2abc eb52 c5bc
00000240: 066a ca3d 3e6a a5bd fc7c 7dbd 1fc6 31bd
00000250: 3052 01be 1fd8 03be 1e92 113d 0348 ec3d
00000260: f21a c7bd a73e 96ba c02f 3abe 18d0 d7bc
00000270: 80ea 02bd ff38 ac3d 6ea5 5e3d 2afb 3c3d
00000280: 46ad 9dbd bfa4 15bc 8f87 32bd 5e2b 22be
00000290: 6687 d5b9 c0be 4fbd 7e96 33bc 001a 89bd
000002a0: 8a24 eebc 44d1 d53c 2789 5e3a 3143 953c
000002b0: 5c13 a2bd 443f 043e a69b 8b3d 74fa 20be
000002c0: 0753 e93d d0f9 fc3d e3de 0c3e 6495 bfbd
000002d0: d4a2 62bd 1c1a 91be 9244 46be 9cc7 533e
000002e0: 7a81 8cba 0fd4 7ebd b3ce 3ebb 5155 80be
000002f0: d04b 8cbd 6dd9 81be 129e 4fbe 1038 3bbd
00000300: 29be c0bb fcc3 87ba 6b69 0bbd 51fa 853d
00000310: 2c74 183d dc51 9ebd 1bcc f0bd def2 1e3e
00000320: 216d 84bd a0de c9bd 113a 06bd cac9 733c
00000330: 5209 6ebd d45c 03be ec9b 48bd 92eb e33c
00000340: 16c3 203c 102f c4bd 36ff a5bc 0647 92bd
00000350: 2d7b a6bd 9ab0 0fbd 1abf a4bd 6d18 7abc
00000360: 70d6 e0bd 01fc 4fbd 9612 ab3d 3f02 0cbe
00000370: ef54 fabc b0ef 4dbd 6c9c 843d 0608 85bd
00000380: 0209 d5bd 379c 91bd 44e3 80bd b2d3 103d
00000390: e82b ebbb 6ecb 153d 9533 febd 5334 a23c
000003a0: f2fc e63d cad2 ec3c 6e0f dbbd 6924 46be
000003b0: 3647 513d 802a 94bd 43af 483d c909 a0bd
000003c0: 0922 713d d32d e53c 6ce7 3e3b 016c 10bd
000003d0: 0863 69bc 7b5d 87bd 91b4 02be eb7d f0bd
000003e0: 8779 c7bc 9d33 39bd ead4 0dbe 0ee5 18be
000003f0: d198 e8bd da6e 22bd b60c 28be 6cae 45bd

bn1.running_mean f4 [256]
0.2792297 0.6885115 3.2808428 -1.4878305 0.03600109 1.6366299 0.81113535 0.44474638
0.85839605 1.9584537 -1.6343038 0.34861523 -0.005066769 0.003038087 2.339833 -0.3993146
-0.8172098 2.3988605 0.18685843 1.5193415 -0.79993707 -3.2771275 0.557761 0.75499445
-0.29881984 -0.08329485 -1.0510147 -1.2823178 0.99068385 2.5588036 -1.1279331 1.5272647
-1.8991804 1.2758422 -1.4905801 -2.7420824 -1.9811628 3.8322084 -0.6363149 -0.91220105
-0.97616124 -1.9133133 1.6177132 0.3364177 -1.3307757 3.1520655 -3.0077078 -2.9675636
-0.9716536 2.59436 -0.697979 -3.026555 0.9775421 -1.5683893 1.9127014 0.5317233
-3.270725 -2.4735105 0.7051477 -2.141276 -1.8204783 1.5196333 0.45699653 1.2486702
1.4678618 -0.9632739 -0.6246542 -1.655696 -1.7543378 0.26630986 -2.146725 -1.1550356
1.8812203 1.0237137 -1.7604779 0.29160678 -1.0539064 1.4321145 2.0084364 0.7102284
-0.505703 0.32058135 -0.8858887 0.4535745 -2.6170304 -1.7985928 1.3316679 -0.010666369
1.2884241 -1.264726 1.3047528 0.23514877 0.3635378 0.57507294 -0.6205351 1.0106897
0.9300573 -0.052570485 0.7067308 -0.09072773 -0.857251 -0.50119126 -1.5742972 -0.36979446
-0.8894894 0.871427 0.12712933 0.0299142 0.9020411 1.9798889 -0.0753146 -2.5415282
-2.6281629 3.4707577 -0.5305211 0.09212803 -0.8757822 -1.5845711 -1.7816535 2.0251696
-0.4747855 -0.6784382 1.412433 0.57715946 -0.9004458 0.2965468 -3.3370354 -1.993766
3.1774318 -0.7537165 1.6478208 -0.59644294 -0.9803542 -0.38611853 -2.062229 -1.6986198
1.06685 1.1022543 -1.0975696 -0.5964721 1.9364412 -4.1171837 -1.0437175 -0.070011914
3.7814953 2.9595625 -0.5957656 0.7178886 -0.08263327 0.93423176 0.31214276 1.0924642
1.1116799 2.1707113 -0.36820138 -1.8100331 0.9254519 2.8950286 1.0254956 -1.5574663
-0.051105455 -0.8502468 0.38221392 0.15729272 -0.18550248 -0.032828107 0.76773936 0.132988
-2.8586657 0.8089709 -1.0172961 0.5920399 0.11889107 0.118199915 0.24950667 -2.7291136
0.24563524 -0.97321236 2.6184418 0.7511177 -2.015316 0.16400859 0.133163 0.62129825
2.9785042 -0.5006731 1.3828778 -1.0844141 1.5268149 -2.3061726 0.31486157 0.9578189
-1.9276463 0.34759018 0.8647629 -1.7043309 2.9929645 0.7711501 -0.038461387 0.97507286
0.73004 1.1901463 -2.6158333 0.428753 1.1787493 -0.32732904 -1.8163155 0.99825054
-1.9666657 -1.0593467 0.63225895 -0.034529407 -1.9062728 0.8979373 0.09446948 1.9478494
-0.195925 -3.251095 0.52440524 0.46648493 -0.85677046 -0.6046365 1.782625 2.8348954
-2.0231824 -0.7517247 -1.8993897 0.6691923 1.7981547 1.6417934 0.7169356 1.4957348
1.6813725 -1.0704569 -0.35372987 -1.3941722 1.2297635 1.561996 1.5651841 -2.5151792
0.9200409 2.0816636 -0.6304026 1.6587952 1.4638911 0.42776883 -0.061287295 0.71460575
-1.6670974 0.7201032 3.121507 -0.20604448 -0.3063925 0.24191858 -2.7403722 -1.6195295
00000000: 32f7 8e3e 4a42 303f 54f9 5140 3b71 bebf
00000010: e175 133d 177d d13f 91a6 4f3f ccb5 e33e
00000020: d8bf 5b3f 9cae fa3f de30 d1bf b27d b23e
00000030: 2407 a6bb a41a 473b d3bf 1540 f772 ccbe
00000040: a934 51bf ee86 1940 d157 3f3e c879 c23f
00000050: adc8 4cbf 75bc 51c0 6dc9 0e3f 5147 413f
00000060: eafe 98be 7e96 aabd a687 86bf fd22 a4bf
00000070: 759d 7d3f 70c3 2340 1d60 90bf 697d c33f
00000080: 5818 f3bf cc4e a33f 54cb bebf 477e 2fc0
00000090: be96 fdbf e742 7540 89e5 22bf 0286 69bf
000000a0: b4e5 79bf 73e7 f4bf 3a11 cf3f f13e ac3e
000000b0: dc56 aabf 71bb 4940 497e 40c0 90ec 3dc0
000000c0: 4abe 78bf ff09 2640 c0ae 32bf 14b3 41c0
000000d0: 3340 7a3f fbc0 c8bf 66d3 f43f 051f 083f
000000e0: 8f53 51c0 ff4d 1ec0 8f84 343f aa0a 09c0
000000f0: 6f05 e9bf 5883 c23f 73fb e93e 6dd4 9f3f
00000100: e5e2 bb3f 1e99 76bf 56e9 1fbf d9ed d3bf
00000110: 248e e0bf c459 883e f163 09c0 35d8 93bf
00000120: d4cb f03f 0d09 833f 5757 e1bf 7c4d 953e
00000130: 68e6 86bf 874f b73f 398a 0040 87d1 353f
00000140: c075 01bf 3d23 a43e 9ac9 62bf eb3a e83e
00000150: 6d7d 27c0 4a38 e6bf 1874 aa3f ffc1 2ebc
00000160: 15eb a43f 8be2 a1bf 2402 a73f d7ca 703e
00000170: a021 ba3e fb37 133f 63db 1ebf 485e 813f
00000180: 3c18 6e3f 2654 57bd 4fec 343f 76cf b9bd
00000190: cd74 5bbf 124e 00bf 9282 c9bf b355 bdbe
000001a0: 94b5 63bf d715 5f3f 312e 023e a00e f53c
000001b0: 2aec 663f 006d fd3f 8a3e 9abd 66a8 22c0
000001c0: d233 28c0 e520 5e40 3bd0 07bf 9fad bc3d
000001d0: 4333 60bf 3ad3 cabf 390d e4bf 619c 0140
000001e0: 1617 f3be 20ae 2dbf 9bca b43f b9c0 133f
000001f0: 9e83 66bf fbd4 973e fd91 55c0 b933 ffbf
00000200: 0b5b 4b40 91f3 40bf cbeb d23f 7cb0 18bf
00000210: 7ef8 7abf 54b1 c5be 8ffb 03c0 606c d9bf
00000220: 8a8e 883f ab16 8d3f 297d 8cbf 65b2 18bf
00000230: 4edd f73f f8bf 83c0 8998 85bf 6862 8fbd
00000240: 0504 7240 7969 3d40 1884 18bf 8cc7 373f
00000250: a23b a9bd d029 6f3f 2dd1 9f3e ded5 8b3f
00000260: 874b 8e3f efec 0a40 e484 bcbe 2aaf e7bf
00000270: 6aea 6c3f 2648 3940 7143 833f 0e5b c7bf
00000280: f453 51bd c6a9 59bf 8bb1 c33e 5811 213e
00000290: 5df4 3dbe c476 06bd 918a 443f 022e 083e
000002a0: 61f4 36c0 b818 4f3f c236 82bf ed8f 173f
000002b0: 297d f33d cc12 f23d ad7e 7f3e cca9 2ec0
000002c0: ce87 7b3e 7224 79bf 8d94 2740 4049 403f
000002d0: f0fa 00c0 def1 273e e25b 083e 670d 1f3f
000002e0: d09f 3e40 1d2c 00bf 2402 b13f 15ce 8abf
000002f0: ac6e c33f 5598 13c0 8935 a13e 9f33 753f
00000300: 1dbd f6bf 57f7 b13e 1a61 5d3f 8427 dabf
00000310: bb8c 3f40 186a 453f b089 1dbd 609e 793f
00000320: e7e3 3a3f b756 983f d069 27c0 8385 db3e
00000330: 42e1 963f ac97 a7be 077d e8bf 598d 7f3f
00000340: b4bb fbbf ac98 87bf b9db 213f b56e 0dbd
00000350: bf00 f4bf 38df 653f 3779 c13d 2153 f93f
00000360: 90a0 48be f111 50c0 6c3f 063f 1dd7 ee3e
00000370: 4f55 5bbf 75c9 1abf 0e2d e43f ed6e 3540
00000380: d27b 01c0 0871 40bf 341f f3bf 3050 2b3f
00000390: ef29 e63f 4926 d23f 1789 373f 3d74 bf3f
000003a0: 3737 d73f bb04 89bf 151c b5be 3c74 b2bf
000003b0: e468 9d3f 7cef c73f f457 c83f b2f8 20c0
000003c0: cd87 6b3f fa39 0540 1162 21bf 6753 d43f
000003d0: c960 bb3f 8404 db3e 6308 7bbd 67f0 363f
000003e0: 7363 d5bf af58 383f c5c6 4740 53fd 52be
000003f0: 7adf 9cbe 81b9 773e 4262 2fc0 be4c cfbf

bn1.running_var f4 [256]
3.6782022 3.554778 1.6687803 2.94681 0.4739818 6.148431 4.3545847 2.0393767
0.16104032 0.86625457 3.868933 2.142776 0.73329026 1.031536 1.678239 0.7095475
0.34547037 1.0574334 4.948173 0.33499965 8.990407 2.298124 0.6625876 1.0582483
3.0024946 1.480361 6.115686 2.5261514 1.1810367 1.8993006 3.0899847 3.5789907
1.5244001 1.6517551 3.1367722 1.7595754 1.7636617 4.9512486 2.6656187 2.6436892
1.3558874 2.6707168 1.011666 3.1234765 2.7446246 1.078867 2.4729366 1.9027555
3.2183502 1.4531512 2.644507 1.9101341 3.9754558 2.211544 1.7582248 1.6377246
2.782427 4.27015 0.43814865 3.6678877 2.4224455 0.55608225 2.8714602 2.1173773
1.4235945 0.99523264 4.4530296 4.700616 3.6862338 3.272009 5.796814 0.66894764
2.1690378 2.1842735 1.8891624 0.30829382 3.2299256 1.0684355 1.0239254 1.5860779
4.6827416 2.021114 12.600619 0.4150068 1.446628 2.0681865 8.154802 4.7205844
2.8368726 1.2671785 3.3155143 3.1834316 1.7713383 3.0953898 3.8630018 0.26357204
3.6328096 12.195209 8.035484 3.233713 1.1677213 0.85453236 1.8149731 4.117513
2.4194553 0.31188866 1.3664804 1.7749976 1.4140527 2.0935392 0.3878795 2.0551455
2.6644526 1.2063328 2.503902 2.504809 2.7302277 5.0422354 2.1402225 1.0404811
1.2372398 1.4839555 1.5276859 0.25523445 1.5756284 1.7838925 4.871476 1.0328792
1.1164762 0.87806416 1.901183 1.1474832 4.527936 11.550788 2.5635676 1.1649015
2.4604712 4.392895 1.7172729 1.8020544 1.6506691 2.065644 3.513598 0.5265235
1.7310941 1.409451 1.7342936 3.6852913 0.8616642 1.2737209 3.5465522 2.1376712
4.3928785 1.9437284 2.414387 1.7747558 0.8104628 2.9460974 0.8708467 2.163596
0.6824885 2.1737134 3.8788195 2.331956 0.34064543 2.958662 1.732001 3.1787424
1.9842446 0.29250526 1.112223 1.0110692 0.3431798 0.832395 3.3769884 1.0851184
0.12610838 1.5376998 1.9455138 3.4687388 3.1137767 8.668539 15.286082 2.879366
2.0440907 3.554375 2.4888675 1.6242597 0.8533449 5.588785 0.24990621 0.24107602
2.2372997 2.54727 2.4317517 2.1371124 3.0790863 0.6242114 2.1754878 1.1716356
5.472496 1.3191122 3.2251318 3.1051311 1.7351719 0.64334816 3.8091335 0.4694996
3.6014576 0.8321843 0.63441294 3.673622 1.6882646 4.957639 1.5580772 1.616034
4.165177 0.9875229 0.9535526 5.333997 5.3676395 5.09251 4.2454286 1.2765193
2.354396 1.5379888 5.06769 1.7108413 1.2716999 2.766923 3.0885897 2.625509
3.6587243 1.9287763 1.641496 2.2796373 1.4217203 1.7377694 2.2847478 2.272704
1.5724719 0.837099 0.7216885 3.9918275 1.1233921 1.7681994 9.706483 1.7410787
1.4062583 2.4305344 1.1650068 2.2846544 3.9712045 0.9472363 2.5709655 3.7803972
00000000: aa67 6b40 7c81 6340 989a d53f 8998 3c40
00000010: bead f23e f2bf c440 c258 8b40 2685 0240
00000020: c1e7 243e dcc2 5d3f 999c 7740 3e23 0940
00000030: e9b8 3b3f 5f09 843f 89d0 d63f e8a4 353f
00000040: 7ee1 b03e fa59 873f 6f57 9e40 1385 ab3e
00000050: b5d8 0f41 7714 1340 579f 293f ae74 873f
00000060: df28 4040 787c bd3f b3b3 c340 77ac 2140
00000070: 362c 973f 481c f33f 4fc2 4540 2f0e 6540
00000080: 8b1f c33f b66c d33f e0c0 4840 c439 e13f
00000090: abbf e13f a170 9e40 7f99 2a40 3432 2940
000000a0: b88d ad3f 06ed 2a40 467e 813f 0ae7 4740
000000b0: eea7 2f40 5018 8a3f 9844 1e40 7e8d f33f
000000c0: 73f9 4d40 dc00 ba3f 9a3f 2940 467f f43f
000000d0: de6d 7e40 f089 0d40 830d e13f f6a0 d13f
000000e0: 4913 3240 12a5 8840 0555 e03e acbe 6a40
000000f0: 5909 1b40 685b 0e3f 01c6 3740 1c83 0740
00000100: 5838 b63f 91c7 7e3f 387f 8e40 726b 9640
00000110: 41eb 6b40 9868 5140 807f b940 2740 2b3f
00000120: 84d1 0a40 23cb 0b40 13d0 f13f b0d8 9d3e
00000130: 1ab7 4e40 7fc2 883f fd0f 833f 9a04 cb3f
00000140: 05d9 9540 ef59 0140 239c 4941 c57b d43e
00000150: 1b2b b93f 2b5d 0440 127a 0241 070f 9740
00000160: 528f 3540 e832 a23f 6331 5440 58bd 4b40
00000170: 37bb e23f de1a 4640 6c3b 7740 eaf2 863e
00000180: f47f 6840 931f 4341 5891 0041 27f5 4e40
00000190: e477 953f a2c2 5a3f 0a51 e83f abc2 8340
000001a0: 5bd8 1a40 dfaf 9f3e d4e8 ae3f 1f33 e33f
000001b0: aeff b43f 8cfc 0540 2498 c63e 8187 0340
000001c0: 6486 2a40 1d69 9a3f ee3f 2040 ca4e 2040
000001d0: 0dbc 2e40 fe59 a140 68f9 0840 7c2e 853f
000001e0: e05d 9e3f 41f2 bd3f 368b c33f 17ae 823e
000001f0: 31ae c93f 9756 e43f 22e3 9b40 6335 843f
00000200: b1e8 8e3f d0c8 603f f759 f33f bbe0 923f
00000210: dae4 9040 07d0 3841 7e11 2440 7e1b 953f
00000220: 5c78 1d40 9992 8c40 99cf db3f b8a9 e63f
00000230: 2049 d33f 8333 0440 cade 6040 3eca 063f
00000240: 7e94 dd3f e468 b43f 55fd dd3f d0db 6b40
00000250: 0696 5c3f 4909 a33f b6fa 6240 9bcf 0840
00000260: 7692 8c40 18cc f83f 5185 1a40 332b e33f
00000270: 7d7a 4f3f dc8c 3c40 cfef 5e3f 5b78 0a40
00000280: 91b7 2e3f 1f1e 0b40 943e 7840 c43e 1540
00000290: 1469 ae3e b85a 3d40 35b2 dd3f 8470 4b40
000002a0: bafb fd3f 40c3 953e 535d 8e3f b76a 813f
000002b0: 43b5 af3e d717 553f 9420 5840 29e5 8a3f
000002c0: 8e22 013e 59d3 c43f 9906 f93f d1ff 5d40
000002d0: 1e48 4740 56b2 0a41 cb93 7441 8847 3840
000002e0: 62d2 0240 e17a 6340 9b49 1f40 bee7 cf3f
000002f0: d074 5a3f 54d7 b240 6ae7 7f3e a2dc 763e
00000300: eb2f 0f40 7906 2340 d2a1 1b40 73c6 0840
00000310: c00f 4540 51cc 1f3f 313b 0b40 28f8 953f
00000320: b01e af40 abd8 a83f 8f68 4e40 78ba 4640
00000330: 1d1a de3f 77b2 243f d8c8 7340 4062 f03e
00000340: 487e 6640 080a 553f e368 223f 9f1c 6b40
00000350: 0e19 d83f fba4 9e40 136f c73f 34da ce3f
00000360: 2149 8540 4dce 7c3f 061c 743f 1ab0 aa40
00000370: b4c3 ab40 d8f5 a240 8dda 8740 fc64 a33f
00000380: 6dae 1640 d1dc c43f 842a a240 d9fc da3f
00000390: 10c7 a23f 4415 3140 74ab 4540 5708 2840
000003a0: 8a28 6a40 24e2 f63f 8a1c d23f 94e5 1140
000003b0: eefa b53f 3a6f de3f 4f39 1240 fb73 1140
000003c0: c246 c93f 1f4c 563f 94c0 383f 1a7a 7f40
000003d0: 50cb 8f3f 5c54 e23f c14d 1b41 abdb de3f
000003e0: 4600 b43f e08d 1b40 f11e 953f c737 1240
000003f0: 3728 7e40 147e 723f b38a 2440 07f2 7140

fc2.weight f4 [128, 256]
-0.028291814 -0.10841746 0.1503781 -0.03108625 0.04925038 0.031156063 -0.18591715 0.03829272
-0.18962106 -0.10627463 -0.06782597 -0.06265296 0.03117905 -0.024609486 -0.07768327 0.059471674
0.047093146 -0.04732149 -0.23126943 0.062167577 0.09797285 -0.070179604 -0.2264037 -0.079082884
-0.04983386 0.07645592 -0.049129073 0.06692518 -0.021930587 -0.099568576 0.0026796588 0.024009982
0.0162228 0.07118094 -0.04897169 -0.015588336 -0.027399704 0.104729906 0.09908816 -0.051522575
0.049082857 0.16889738 0.13155591 0.02057927 0.121162064 -0.039304346 0.13815077 0.070519514
-0.10653759 -0.055075713 0.25098476 0.0078024794 0.034635235 -0.01398008 -0.041695464 -0.025298744
0.13552506 -0.012444639 -0.09752197 -0.023428515 -0.058670104 0.06008314 0.004714483 -0.03348985
-0.01993743 0.030993102 0.039159503 -0.0370153 0.07998179 0.075961016 0.016811483 -0.036678318
0.005913078 0.029310178 0.0027880492 -0.28468817 -0.10946027 -0.16339795 0.055676732 0.01708706
-0.05231865 -0.07159225 -0.3647043 -0.032969113 -0.0016615171 0.14874105 -0.15628551 0.04391004
0.05278166 0.048177954 -0.15313746 0.074267685 0.025618073 -0.018355941 0.06118081 0.021195775
-0.02015434 -0.34072772 0.027074473 -0.05539608 -0.034231037 0.11735278 -0.00045591602 0.01545728
0.09364057 -0.029275183 0.12041453 0.08089173 0.08517625 -0.09143125 -0.051816896 -0.003400797
-0.06808237 -0.08980826 -0.055151526 0.06369328 -0.02761348 0.058343753 0.01999374 0.08890439
0.11749525 0.06420269 0.016276669 0.13520932 0.011865861 0.068589486 0.038979594 -0.029239984
0.216777 -0.07430036 0.10510466 -0.004182015 -0.07467664 -0.3131977 0.10540284 0.059850473
0.059325725 -0.24868038 0.014841333 -0.12619981 -0.13318132 -0.043283727 0.004569537 0.058845185
-0.043559864 -0.09035338 -0.06894569 0.058142837 0.013297083 -0.026759079 0.01639365 0.0076126284
0.19062483 -0.06444193 0.07680005 0.09705714 0.08219201 0.024590295 -0.17599082 0.14053315
-0.059763867 0.08611955 0.005383361 0.062057067 0.038952086 0.2421557 -0.039242234 -0.055090193
-0.01204449 -0.004104734 -0.0015151023 0.021401769 -0.13357526 0.08036213 0.010373662 0.06910259
-0.084816836 0.07448331 -0.07817685 0.06638795 0.07510535 -0.3352876 -0.28042862 -0.0828229
-0.028891983 0.011688436 0.07889425 0.11120129 -0.17636696 -0.0057676933 -0.07417888 0.029194325
-0.009510985 -0.09271753 0.07741626 0.014813428 0.08058615 -0.023825238 0.032720152 0.100275256
-0.013489451 -0.0040810113 0.13057429 -0.09104591 0.11748221 -0.022435574 -0.048537023 0.040733114
-0.02302298 0.029724136 0.13640074 0.14848997 0.10596331 0.017726867 0.13136609 0.012576312
-0.04189529 0.06466692 0.022341875 0.091850765 0.0022261664 -0.052013453 -0.018973073 0.013157186
-0.035775386 -0.07458825 -0.0047124783 -0.09456864 -0.036403283 -0.08055231 -0.14864312 -0.042952433
0.022824958 0.04611128 0.10213423 0.058609877 0.043048456 0.047935735 0.08134589 0.008823185
0.020603914 -0.057942446 -0.012968922 0.010796109 0.024775652 -0.027537428 -0.1228786 -0.023290373
-0.01882057 -0.012148004 -0.10485187 0.08085827 -0.06451324 0.09342355 0.022838397 -0.052000057
00000000: 3cc4 e7bc f909 debd b7fc 193e 97a8 febc
00000010: c4ba 493d 003b ff3c 1161 3ebe d4d8 1c3d
00000020: 062c 42be 83a6 d9bd 58e8 8abd 3250 80bd
00000030: 356b ff3c d599 c9bc 6818 9fbd 9298 733d
00000040: bee4 403d 2ed4 41bd e5d1 6cbe 6ea3 7e3d
00000050: fda5 c83d 53ba 8fbd 5fd6 67be 35f6 a1bd
00000060: 971e 4cbd ec94 9c3d 913b 49bd 1210 893d
00000070: c6a7 b3bc 9cea cbbd 379d 2f3b 95b0 c43c
00000080: ade5 843c 50c7 913d 8a96 48bd 3866 7fbc
00000090: 5875 e0bc a27c d63d bcee ca3d 5609 53bd
000000a0: 1b0b 493d 6ff3 2c3e 98b6 063e db95 a83c
000000b0: d123 f83d 98fd 20bd 6577 0d3e 896c 903d
000000c0: 6130 dabd 1297 61bd 1381 803e f1ab ff3b
000000d0: addd 0d3d b50c 65bc ddc8 2abd 503f cfbc
000000e0: 15c7 0a3e 99e4 4bbc 99b9 c7bd 28ed bfbc
000000f0: 1050 70bd bd19 763d f37b 9a3b a72c 09bd
00000100: d253 a3bc 3fe5 fd3c b765 203d 5b9d 17bd
00000110: 7ecd a33d 7391 9b3d 3cb8 893c 013c 16bd
00000120: 7ec2 c13b e61b f03c b4b7 363b a6c2 91be
00000130: b52c e0bd cb51 27be 490d 643d 29fa 8b3c
00000140: 154c 56bd f59e 92bd 86ba babe 9f0a 07bd
00000150: 43c7 d9ba 934f 183e 4f09 20be 04db 333d
00000160: 9531 583d 3f56 453d 11d0 1cbe a819 983d
00000170: fedc d13c 335f 96bc bb98 7a3d c3a2 ad3c
00000180: b71a a5bc dd73 aebe 49cb dd3c 00e7 62bd
00000190: d835 0cbd a856 f03d 0308 efb9 8840 7d3c
000001a0: a1c6 bf3d 82d2 efbc e59b f63d 90aa a53d
000001b0: e370 ae3d 4f40 bbbd f43d 54bd e8df 5ebb
000001c0: c56e 8bbd 65ed b7bd 91e6 61bd 9f71 823d
000001d0: aa35 e2bc dcf9 6e3d e9c9 a33c 8113 b63d
000001e0: 5aa1 f03d b37c 833d a656 853c 5074 0a3e
000001f0: 0769 423c a578 8c3d 11a9 1f3d b188 efbc
00000200: cafa 5d3e ca2a 98bd 1d41 d73d 4909 89bb
00000210: 11f0 98bd 735b a0be 72dd d73d c525 753d
00000220: 88ff 723d 12a6 7ebe 1029 733c 863a 01be
00000230: af60 08be 474a 31bd 0ebc 953b a607 713d
00000240: d46b 32bd 310b b9bd 6633 8dbd 2f27 6e3d
00000250: 02dc 593c db35 dbbc fa4b 863c 5b73 f93b
00000260: 2833 433e 21fa 83bd 5849 9d3d e5c5 c63d
00000270: 4954 a83d 9671 c93c f036 34be ece7 0f3e
00000280: f5ca 74bd 725f b03d e866 b03b 8d2f 7e3d
00000290: 398c 1f3d aaf7 773e 77bc 20bd 41a6 61bd
000002a0: 4156 45bc 0181 86bb 6696 c6ba c352 af3c
000002b0: f4c7 08be e794 a43d 4bf6 293c a985 8d3d
000002c0: 73b4 adbd b58a 983d 2f1b a0bd 68f6 873d
000002d0: d5d0 993d d1aa abbe 5794 8fbe 0d9f a9bd
000002e0: e1ae ecbc db80 3f3c 4f93 a13d 80bd e33d
000002f0: 8a99 34be ebfe bcbb 19eb 97bd f028 ef3c
00000300: f6d3 1bbc b0e2 bdbd 6b8c 9e3d 05b4 723c
00000310: 5a0a a53d 252d c3bc 9105 063d 1d5d cd3d
00000320: dc02 5dbc 01ba 85bb 44b5 053e 4776 babd
00000330: 839a f03d cfca b7bc c2ce 46bd c4d7 263d
00000340: b09a bcbc 0880 f33c a3ac 0b3e c10d 183e
00000350: 4b03 d93d ef37 913c d584 063e e00c 4e3c
00000360: 659a 2bbd 1770 843d 4f06 b73c 411c bc3d
00000370: e0e4 113b 0f0c 55bd 6b6d 9bbc 3d91 573c
00000380: 3689 12bd b9c1 98bd 226b 9abb 34ad c1bd
00000390: 9c1b 15bd 9cf8 a4bd e735 18be e4ee 2fbd
000003a0: 68fb ba3c 2edf 3c3d c02b d13d e910 703d
000003b0: 9453 303d 4358 443d ad98 a63d 1f8f 103c
000003c0: 8ac9 a83c 0f55 6dbd 9a7b 54bc 2ae2 303c
000003d0: 4ff6 ca3c 2c96 e1bc c7a7 fbbd 74cb bebc
000003e0: 992d 9abc 6c08 47bc 94bc d6bd 0599 a53d
000003f0: 841f 84bd d954 bf3d 9717 bb3c 03fe 54bd

fc2.bias f4 [128]
-0.042191263 0.084740154 -0.0046538487 -0.096734844 0.0064646523 -0.06866539 0.025979962 -0.18677935
0.023396313 -0.16014326 0.025840739 -0.12799181 0.03460683 0.03472088 -0.15354738 0.07048263
-0.0060813976 -0.051691707 -0.099110596 -0.049648236 0.041446216 -0.063753664 -0.14188787 0.027725536
-0.073598936 -0.114620954 -0.04482551 0.030481223 -0.14722611 -0.00091265247 0.044780467 0.08543836
-0.063747026 -0.13581628 0.055951707 0.07949663 -0.10194919 -0.15739486 0.010943169 0.047082003
0.04711565 0.06829129 -0.073408484 -0.00256347 -0.067236714 -0.062421784 -0.091707535 -0.04702494
0.070220165 0.0046705934 -0.06378877 -0.004283634 -0.1403824 -0.10525672 0.019527957 -0.03766598
-0.15613236 -0.1018289 -0.081340976 -0.101909235 0.01657037 -0.033882488 -0.065254934 -0.05578553
0.08011746 0.027399207 0.044977687 -0.10695193 -0.008943096 0.1093692 -0.11347492 -0.024300253
-0.015984276 -0.13407014 0.07375493 -0.059771873 -0.003196044 -0.09065299 -0.055830766 -0.10701015
0.021415997 -0.08607259 -0.055688493 0.01945435 0.051928487 0.06447449 -0.16735359 0.027175408
-0.07449438 0.041343406 -0.039614733 -0.06440985 -0.08744394 0.009027676 0.029905371 -0.10042078
0.06350026 0.012222391 -0.001530225 -0.0055239084 -0.03182471 0.033597827 0.017012706 -0.076569475
0.03359195 -0.040704615 -0.021113984 0.109272964 0.041534312 0.024111563 -0.096573815 -0.07803599
-0.0963525 -0.024383562 0.019456543 -0.1433132 0.041856617 0.016180022 0.047468983 -0.0556397
0.045507833 0.015572144 -0.09582136 -0.012253909 0.11191934 -0.001829074 -0.064018615 0.08217406
00000000: bfd0 2cbd 3f8c ad3d 507f 98bb eb1c c6bd
00000010: 6fd5 d33b 71a0 8cbd eed3 d43c 1643 3fbe
00000020: a0a9 bf3c 98fc 23be f5af d33c 4910 03be
00000030: e4bf 0d3d 7b37 0e3d 863b 1dbe 3259 903d
00000040: 7646 c7bb afba 53bd 7ffa cabd f35b 4bbd
00000050: 82c3 293d 4891 82bd 0e4b 11be aa20 e33c
00000060: 0abb 96bd 64be eabd f49a 37bd c2b3 f93c
00000070: 71c2 16be 123f 6fba b96b 373d 4ffa ae3d
00000080: cd8d 82bd 6c13 0bbe 9e2d 653d 21cf a23d
00000090: bdca d0bd 1e2c 21be fa4a 333c 0fd9 403d
000000a0: 57fc 403d 4edc 8b3d 3057 96bd e4ff 27bb
000000b0: 67b3 89bd fcad 7fbd 29d1 bbbd 399d 40bd
000000c0: 97cf 8f3d c70b 993b b0a3 82bd ba5d 8cbb
000000d0: 67c0 0fbe d690 d7bd 18f9 9f3c a547 1abd
000000e0: 29e1 1fbe ac8b d0bd 1996 a6bd cab5 d0bd
000000f0: 96be 873c 5dc8 0abd 61a4 85bd 5e7f 64bd
00000100: 9f14 a43d 4d74 e03c 863a 383d 9d09 dbbd
00000110: 1086 12bc f6fc df3d 8a65 e8bd 5311 c7bc
00000120: 75f1 82bc af49 09be d30c 973d 5ad3 74bd
00000130: b874 51bb 46a8 b9bd cdae 64bd 2328 dbbd
00000140: 9a70 af3c d346 b0bd 9e19 64bd bb5e 9f3c
00000150: f7b2 543d 340b 843d bd5e 2bbe f69e de3c
00000160: 8290 98bd b457 293d 0f43 22bd 50e9 83bd
00000170: cf15 b3bd d1e8 133c 1cfc f43c 69a9 cdbd
00000180: 6d0c 823d 6c40 483c d591 c8ba e701 b5bb
00000190: a15a 02bd e09d 093d 3b5e 8b3c 75d0 9cbd
000001a0: b697 093d e2b9 26bd 3cf7 acbc 81ca df3d
000001b0: e21f 2a3d 9d85 c53c 7ec8 c5bd 55d1 9fbd
000001c0: 7654 c5bd 09c0 c7bc 5463 9f3c b2c0 12be
000001d0: d871 2b3d f78b 843c d66e 423d 74e6 63bd
000001e0: 6c66 3a3d 4e22 7f3c fd3d c4bd 9fc4 48bc
000001f0: f835 e53d 8abd efba 311c 83bd e04a a83d
